Lab 4/task2-image/images-mode.pth (torch, 252037 bytes, 10 tensors)

conv1.weight f4 [6, 3, 5, 5]
0	0x3e135d6b	0.14391105
1	0x3ae13c84	0.0017184173
2	0x3df54a2c	0.11977038
3	0xbe00bb27	-0.12571393
4	0xbc22be7f	-0.009933113
5	0x3e2a1abf	0.16611765
6	0x3e80a7b2	0.2512794
7	0x3e8dd4a4	0.27701294
8	0x3e574029	0.21020569
9	0x3ddf4139	0.10901112
10	0x3def5ea8	0.11687976
11	0x3e9b4eb8	0.30333495
12	0x3e6c4b66	0.23075637
13	0x3ec412b5	0.38295522
14	0x3e951af2	0.2912212
15	0xbe14fe7c	-0.14550203
16	0xbe9b4cd4	-0.30332053
17	0xbe8640e4	-0.26221383
18	0xbe4aa6a2	-0.19790128
19	0xbd6665de	-0.056249492
20	0xbe319a29	-0.17343964
21	0xbed4230b	-0.41432986
22	0xbebd99b3	-0.37031326
23	0xbe5a0934	-0.21292573
24	0xbe7fdade	-0.24985835
25	0xbcd62f6e	-0.026145663
26	0x3d17af0d	0.037032176
27	0x3d69978b	0.05702929
28	0xbb3668fb	-0.002783357
29	0xbe08a187	-0.13342868
30	0x3e1ce746	0.15322599
31	0x3de0c79a	0.10975571
32	0x3ebb197c	0.3654288
33	0x3e811c6e	0.25217003
34	0x3e6c8c39	0.23100366
35	0x3e8460a9	0.25854996
36	0x3e278956	0.16360983
37	0x3e5b6caf	0.21428178
38	0x3e946895	0.2898604
39	0x3e7ce680	0.24697304
40	0xbe88807c	-0.26660526
41	0xbe8758da	-0.26434976
42	0xbdee21c9	-0.11627538
43	0xbea43f6d	-0.3207964
44	0xbd19c8b3	-0.037544917
45	0xbe9c4421	-0.30520728
46	0xbec2ca03	-0.38044748
47	0xbe9873d2	-0.29775864
48	0xbeb798ea	-0.35858852
49	0xbdec6c77	-0.115441255
50	0x3d6088b6	0.054817878
51	0xbda63975	-0.08116428
52	0xbe23c07c	-0.15991396
53	0xbe416744	-0.18887049
54	0xbd63cb71	-0.05561394
55	0x3e855797	0.26043388
56	0x3e75e920	0.24014711
57	0x3e9910ce	0.29895633
58	0x3d8fbea4	0.07018784
59	0x3cbbd57f	0.022928951
60	0x3e8ed1ea	0.27894527
61	0x3e337697	0.17525707
62	0x3e665f38	0.2249726
63	0x3e8b2b8a	0.27181655
64	0x3e838b1c	0.2569207
65	0xbdb77b08	-0.08959013
66	0xbe485452	-0.19563416
67	0xbe0f6691	-0.1400397
68	0xbe5e8ea9	-0.21734108
69	0xbd21db0a	-0.039515533
70	0xbe4c0d30	-0.19926906
71	0xbe97bd07	-0.29636404
72	0xbe14b9a0	-0.14523935
73	0xbe93eed2	-0.28893143
74	0xbdfd7b04	-0.12376979
75	0xbddfee59	-0.10934133
76	0xbe5a592c	-0.21323079
77	0x3e3c5a39	0.18393792
78	0x3e771a84	0.24131209
79	0x3e011c19	0.12608375
80	0xbe0bd32d	-0.13654776
81	0xbe3eaff1	-0.18621804
82	0x3e888e87	0.2667124
83	0x3ea8a1ad	0.3293585
84	0x3d83cb12	0.06435217
85	0xbcdab6a3	-0.026698416
86	0xbe0b9943	-0.13632683
87	0x3e853ab2	0.26021343
88	0x3e5774a0	0.21040583
89	0x3e53109c	0.20611805
90	0x3c97f1ec	0.018547975
91	0x3e30b131	0.17255093
92	0x3ea00782	0.31255728
93	0x3e04c5d7	0.12966095
94	0x3e065f22	0.13122228
95	0x3d1a8fc8	0.037734777
96	0x3e81dbe2	0.2536307
97	0x3ec1f15f	0.37879464
98	0x3e61c10a	0.22046295
99	0xbc11ee17	-0.008906863
100	0xbe13e937	-0.14444433
101	0xbe63a786	-0.22231874
102	0x3e3deb20	0.18546724
103	0x3e8b9e46	0.2726919
104	0x3cfae76a	0.030627925
105	0xbde73c42	-0.1129079
106	0xbe6111ac	-0.21979398
107	0x3e82988b	0.25507006
108	0x3ee39076	0.44446152
109	0x3c320fc9	0.010868021
110	0xbe51d592	-0.20491627
111	0x3d150c3d	0.036388624
112	0x3e6e3796	0.23263392
113	0x3e4ce6bd	0.20009895
114	0x3db47df5	0.08813087
115	0xbe0bb543	-0.13643365
116	0x3e591f79	0.21203412
117	0x3e46bd2c	0.19408101
118	0x3e1397e2	0.14413407
119	0x3dfa3388	0.1221686
120	0xbe20f10b	-0.1571695
121	0x3e659810	0.22421288
122	0x3eac9f43	0.33715257
123	0x3e1fe7a2	0.15615705
124	0x3d638d0b	0.05555443
125	0xbeb33699	-0.35002592
126	0xbf02dfc9	-0.5112272
127	0xbd8e51bf	-0.069491856
128	0x3e0762cb	0.1322128
129	0xbdc102e7	-0.09424382
130	0xbec7c5fc	-0.39018238
131	0xbee31270	-0.44350004
132	0xbd477a70	-0.04870075
133	0x3e09f40d	0.13472004
134	0xbd9fac4a	-0.077965334
135	0xbe72babe	-0.23704049
136	0xbe3332df	-0.17499875
137	0xbdeb65f6	-0.11494057
138	0xbd582e75	-0.05277868
139	0xbdfcb56b	-0.1233929
140	0xbeba4fd3	-0.36389026
141	0xbe154e07	-0.14580546
142	0xbe00539b	-0.12531893
143	0xbe569b17	-0.209576
144	0xbe0fe51c	-0.14052242
145	0xbecb4013	-0.39697322
146	0xbe06dac5	-0.13169391
147	0x3c99dc17	0.018781705
148	0xbe859d64	-0.26096642
149	0xbe9f602c	-0.3112806
150	0xbe5f86af	-0.21828721
151	0xbda41f46	-0.080137774
152	0xbdd36e1f	-0.10323738
153	0x3c02f9d0	0.00799413
154	0xbdff4435	-0.12464181
155	0xbe19ee30	-0.15032268
156	0x3decf7b2	0.11570682
157	0x3d6b587f	0.057457443
158	0x3dda33c4	0.10654405
159	0x3d3b48cf	0.045723733
160	0xbd5ddf6f	-0.05416816
161	0x3e0e08d7	0.1387056
162	0x3e2d65bc	0.1693334
163	0x3da80dcc	0.082057565
164	0x3c762900	0.015024424
165	0xbd1a74f8	-0.037709206
166	0x3c03d200	0.008045673
167	0x3d515173	0.051103067
168	0xbcbc595d	-0.02299183
169	0x3dd9b4fd	0.10630224
170	0xbb659eb1	-0.0035037214
171	0xbce47387	-0.027887119
172	0x3df99866	0.12187271
173	0x3cd2d53a	0.02573644
174	0xbd8b162d	-0.06791339
175	0x3d31a85e	0.043373458
176	0x3dbce15a	0.0922267
177	0x3da71e8f	0.081601255
178	0x3e86c1ab	0.26319632
179	0x3d9c4f36	0.07632296
180	0x3d865b4c	0.06560382
181	0x3e099ded	0.1343915
182	0x3e413ff0	0.18872046
183	0x3e730b34	0.23734742
184	0x3e26a23e	0.16272828
185	0x3e087711	0.1332667
186	0x3e0c282b	0.13687198
187	0x3ea7598d	0.3268551
188	0x3dfdf9e7	0.12401181
189	0x3e10845b	0.1411299
190	0x3dfe400d	0.124145605
191	0x3dc26405	0.094917335
192	0x3e648378	0.22315776
193	0x3e2b9fa1	0.16760112
194	0x3e1b6b47	0.15177642
195	0x3d16c754	0.036811188
196	0xbb7a7e28	-0.0038222168
197	0x3cf43bc3	0.029813653
198	0x3e12a60f	0.14321159
199	0x3b0722d0	0.0020620115
200	0x3c26a66c	0.010171514
201	0x3dcb8148	0.09936768
202	0x3e50012c	0.20312947
203	0x3df7165b	0.12064811
204	0x3de173a6	0.11008386
205	0x3e67ded1	0.22643591
206	0x3e19e885	0.15030105
207	0x3eaf8879	0.34283808
208	0x3e408954	0.18802387
209	0x3e4bdfb1	0.1990955
210	0x3e4c8581	0.19972803
211	0x3e38d725	0.18050821
212	0x3e1a50b0	0.15069842
213	0x3e2d7747	0.16940032
214	0x3e0d75a2	0.13814405
215	0x3d95015d	0.07275651
216	0x3db106e9	0.08643896
217	0x3e10223d	0.14075561
218	0x3d150c07	0.036388423
219	0xbaabc8a0	-0.0013106056
220	0xbda92639	-0.082592435
221	0x3d8d0355	0.06885401
222	0x3dc51bf0	0.09624469
223	0x3dfd4e57	0.12368458
224	0x3d5453af	0.05183762
225	0x3e2101fa	0.1572341
226	0xbd4d31d4	-0.050096348
227	0x3bd1a1ae	0.0063974475
228	0x3da66ca8	0.08126193
229	0x3d9b447b	0.07581421
230	0x3dc60fd0	0.09670985
231	0x3dc17b90	0.09447396
232	0xbd81451f	-0.06312012
233	0xbcfdf421	-0.031000199
234	0xbc49c2b9	-0.012314492
235	0x3e1c6b93	0.15275411
236	0xbc5048d6	-0.012712678
237	0xbe1dd664	-0.15413815
238	0xbe1c89a6	-0.15286884
239	0xbdec8fb8	-0.1155085
240	0x3e24ddf3	0.16100292
241	0x3ca8bddb	0.020598343
242	0xbd9665d7	-0.07343643
243	0xbe2c9e52	-0.1685727
244	0xbdf5a807	-0.11994939
245	0x3d8f2259	0.06988973
246	0x3e34691a	0.17618218
247	0x3da26c71	0.0793084
248	0xbe1843ea	-0.14869657
249	0xbd281cc6	-0.041043065
250	0xbbf70a55	-0.0075390735
251	0x3b9331bf	0.004492014
252	0xbe0e5a47	-0.13901626
253	0xbe1d1d8f	-0.15343307
254	0xbe0b51e0	-0.13605452
255	0x3e1ca140	0.15295887

conv1.bias f4 [6]
0	0x3c6b4be3	0.0143613545
1	0x3f0667c2	0.5250207
2	0xbeb4f199	-0.35340574
3	0x3ddfead7	0.10933464
4	0xbeb04dbc	-0.34434307
5	0xbd8d7d82	-0.06908704

conv2.weight f4 [16, 6, 5, 5]
0	0xbd77e2b1	-0.060518924
1	0x3d99dc8b	0.07512768
2	0x3ce87054	0.028373875
3	0xbd9b4b66	-0.075827405
4	0xbcc671bc	-0.024224155
5	0x3d8740d5	0.066041626
6	0x3ae7b83d	0.0017678809
7	0xbd4c300e	-0.049850516
8	0x3cb88c3d	0.022527808
9	0x3d5f6714	0.054541662
10	0x3d968cc3	0.07351067
11	0x3c8ca807	0.017169965
12	0xb9fdef83	-0.0004843437
13	0xbd1a1bb4	-0.037624076
14	0x3cfaa56f	0.030596463
15	0xbd5663c6	-0.052341245
16	0x3d0fa228	0.035066754
17	0xbd505e74	-0.050871328
18	0xbcd674ea	-0.026178796
19	0xbcc8d63a	-0.024516214
20	0x3d95fec5	0.07323984
21	0x3cd9eeae	0.02660307
22	0xbd8688b3	-0.06569042
23	0xbcee14e9	-0.029062705
24	0x3d9cef52	0.07662834
25	0xbce0a9bd	-0.027424688
26	0x3c4c2462	0.012459846
27	0xbca87da9	-0.020567732
28	0xbd0fbdb0	-0.03509301
29	0x3d802c33	0.0625843
30	0xbd6b8e4c	-0.05750875
31	0xbd96cc2a	-0.0736316
32	0x3ca04b86	0.019567262
33	0x3c1dfed6	0.009643277
34	0x3cfa32cc	0.0305418
35	0x3d47277e	0.048621647
36	0xbd8d6984	-0.06904891
37	0xbc060dd2	-0.008182006
38	0xbd917a22	-0.07103373
39	0x3bf8ca93	0.007592508
40	0xbd198ef1	-0.037489835
41	0x3d904234	0.07043877
42	0xbc1ba870	-0.009500608
43	0xbd3a11ce	-0.045427136
44	0x3d340111	0.04394633
45	0xbd78b17e	-0.060716145
46	0x3d8eddb2	0.06975879
47	0xbd843dbd	-0.06457088
48	0xbd3dbff5	-0.046325643
49	0xbd9d470c	-0.07679567
50	0xbdaeae7b	-0.08529373
51	0x3d11ef7e	0.03562879
52	0xbc80bd21	-0.015715184
53	0x3d8bd039	0.06826825
54	0x3a9b8c54	0.0011867383
55	0xbc25c3e3	-0.010117504
56	0xbcf91a42	-0.030408029
57	0xbd68fa71	-0.056879465
58	0x3d98df58	0.074644744
59	0xbd479e2b	-0.048734825
60	0x3ca09c65	0.019605825
61	0x3d103d9a	0.035214998
62	0xbd946101	-0.072450645
63	0x3d584cc3	0.05280758
64	0xbcc7e175	-0.024399498
65	0xbce0061c	-0.027346663
66	0xbc9236b8	-0.017848358
67	0xbd9db57c	-0.07700631
68	0xbd641aad	-0.055689503
69	0xbd4d9b1a	-0.050196745
70	0x3bb3f5bd	0.005491941
71	0x3b5d2f0a	0.0033749961
72	0xbc18165d	-0.009282676
73	0x3d1e3926	0.03862872
74	0x3d771f5a	0.060332634
75	0x3c8ffa98	0.017575547
76	0xbbaa1d52	-0.0051914835
77	0x3c8bdb66	0.01707239
78	0xbd9cd1cd	-0.07657204
79	0x3da35bf9	0.07976527
80	0x3c87a24e	0.016556885
81	0x3c03939c	0.008030798
82	0x3c529d0e	0.012854828
83	0xbc01c586	-0.007920628
84	0x3d5646d9	0.05231366
85	0x3d4c9d25	0.049954552
86	0xbd294951	-0.041329686
87	0x3cfaba54	0.030606426
88	0x3b37f554	0.002806981
89	0x3d99b259	0.0750472
90	0x3da3d6d4	0.079999596
91	0xbd8318e0	-0.06401229
92	0xbce5f5d8	-0.028071329
93	0x3d56fb49	0.052485738
94	0x3d11566c	0.03548281
95	0x3d3046a3	0.043036114
96	0xba37c538	-0.0007010284
97	0x3d159ee5	0.036528487
98	0x3d3ca6d0	0.046057522
99	0xbda21fb6	-0.07916205
100	0xbd07bfda	-0.03314195
101	0x3d909bcf	0.07060968
102	0xbc8a09dc	-0.016850404
103	0xbd99d843	-0.07511952
104	0x3d9f8bd2	0.077903405
105	0x3d712dbd	0.05888151
106	0xbd87210f	-0.06598102
107	0xbd21ee0a	-0.039533652
108	0xbd4cd313	-0.050005984
109	0x3c7c9180	0.015415549
110	0x3b80e100	0.003933072
111	0xbda76a70	-0.08174598
112	0x3d8aece1	0.06783462
113	0xbce15371	-0.027505608
114	0xbbc0b50d	-0.005880958
115	0x3d2bdd65	0.041959185
116	0xbd9c615c	-0.07635757
117	0x3d97771f	0.073957674
118	0x3d4baff4	0.04972835
119	0x3cd67c9c	0.026182465
120	0xbd8712bb	-0.065953694
121	0x3d501c24	0.050808087
122	0x3c5cfd1b	0.013488079
123	0x3d70447d	0.058659066
124	0x3ce55223	0.027993267
125	0xbcf6d35d	-0.030130083
126	0x3d75e490	0.060032427
127	0x3cb5c1cd	0.022187138
128	0x3c916379	0.017747628
129	0xbd2209ca	-0.039560117
130	0xbd9659b6	-0.0734133
131	0x3d17d80d	0.037071276
132	0xbc6b6534	-0.01436739
133	0xbd17adc4	-0.03703095
134	0x3ce2c1fc	0.02768039
135	0xbd6feedc	-0.058577403
136	0xbc5962c0	-0.013268173
137	0x3d20ed2a	0.039288677
138	0xbd149eb4	-0.036284164
139	0xbd754ccd	-0.059887696
140	0x3d5a144c	0.053242013
141	0xbcfae149	-0.030625002
142	0xbc68e317	-0.014214299
143	0xbd5ea483	-0.05435611
144	0xbcd90b54	-0.02649466
145	0xbd77bfbb	-0.060485583
146	0xbbe4c65f	-0.0069816555
147	0x3be7413d	0.0070573376
148	0xbda20885	-0.07911781
149	0xbd601a60	-0.054712653
150	0x3d844626	0.06458692
151	0x3d8c7369	0.0685795
152	0x3e1cbbed	0.15306063
153	0x3dd814b8	0.10550827
154	0x3d1062fe	0.035250656
155	0x3dc7bfe4	0.09753397
156	0xbcd5e019	-0.026107835
157	0xbc27fe8a	-0.010253558
158	0x3daa5b2d	0.08318172
159	0x3e2673af	0.16255067
160	0xbcf20750	-0.029544502
161	0x3d948308	0.07251555
162	0x3dd97793	0.1061851
163	0x3e356c6c	0.17717141
164	0x3e47043a	0.19435206
165	0x3d3aa556	0.045567833
166	0x3dd2cf69	0.102934666
167	0x3e2a650d	0.1664011
168	0x3dc3cc89	0.09560496
169	0x3da959c0	0.082690716
170	0xbd305156	-0.043046318
171	0xbcd40c50	-0.025884777
172	0xbd3e2a7f	-0.046427246
173	0xbdd111ae	-0.1020845
174	0x3d7f290b	0.062295
175	0x3dc37934	0.09544602
176	0x3d9b4b55	0.07582728
177	0x3d8948f7	0.0670337
178	0x3e3dd9e6	0.18540153
179	0x3e192588	0.14955723
180	0x3d48f01b	0.049057107
181	0x3c2e8915	0.0106528
182	0x3df12379	0.11774344
183	0x3e515453	0.20442323
184	0x3d68aae7	0.05680361
185	0x3e38bd47	0.18040954
186	0x3e0d2401	0.13783266
187	0x3da1f2b7	0.07907622
188	0x3db882a5	0.090092935
189	0xbcd6e71a	-0.026233245
190	0x3de2d30a	0.11075409
191	0xbc5335f2	-0.0128912795
192	0x3e2234fb	0.15840523
193	0xbdf1e9ed	-0.11812196
194	0x3da99c63	0.082817815
195	0x3e49b86a	0.19699255
196	0x3d8e90ab	0.06961187
197	0x3e469d27	0.19395886
198	0x3e2a7ff4	0.16650373
199	0x3eb20434	0.34768832
200	0x3d93b21a	0.072117046
201	0xbddd5855	-0.108078636
202	0xbc713c79	-0.01472389
203	0x3bdb433a	0.0066913636
204	0xbe0484cd	-0.12941284
205	0x3beb03d1	0.007172086
206	0xbd14fa27	-0.036371376
207	0xbda7d06c	-0.0819405
208	0xbce1c7a1	-0.02756101
209	0x3d86e36f	0.06586348
210	0x3d1f3f99	0.03887901
211	0xbd2680b9	-0.040650103
212	0x3dbe5070	0.09292686
213	0x3da1cabf	0.07899999
214	0x3d8a04ae	0.06739174
215	0x3d865e82	0.06560995
216	0xbd67953a	-0.056538798
217	0x3cee3803	0.029079443
218	0xbcd526b7	-0.026019437
219	0xbe014fc4	-0.12628084
220	0xbd9429cb	-0.07234534
221	0xbd1ab600	-0.037771225
222	0x3cb1eec4	0.021720298
223	0x3d9200ba	0.07129045
224	0x3dd8d950	0.10588324
225	0x3d2d811c	0.042359456
226	0x3d262c34	0.0405695
227	0xbd2f046d	-0.04272883
228	0x3b1fa222	0.0024358113
229	0x3d21e9ab	0.039529484
230	0x3c61417e	0.013748525
231	0x3b85b7e3	0.004080759
232	0x3d3cf2a1	0.046129826
233	0x3d160de7	0.036634352
234	0xbd5a872b	-0.053351562
235	0xbca46a73	-0.02007029
236	0xbd747414	-0.059681013
237	0xbda3fb23	-0.08006885
238	0x3d731cc3	0.0593536
239	0xbb8febd5	-0.004392127
240	0xbd928f64	-0.07156256
241	0x3cbd7d99	0.023131179
242	0x3d3bbc71	0.04583401
243	0x3d90f52e	0.07078014
244	0xbd7bbfb4	-0.06146212
245	0xbd9118c3	-0.07084801
246	0xbd97b1f5	-0.074069895
247	0xbdb177aa	-0.08665402
248	0xbd226e96	-0.039656244
249	0xbdb7aff3	-0.089691065
250	0x3cba2f06	0.0227275
251	0xbdb19f37	-0.08672946
252	0xbddf7d2f	-0.10912549
253	0xbe02be97	-0.12768017
254	0xbca8dbd8	-0.020612642
255	0xbd307692	-0.043081827

conv2.bias f4 [16]
0	0xbda2c7ba	-0.07948251
1	0x3e0d73e3	0.13813739
2	0x3e61e918	0.22061574
3	0xbd24810f	-0.040162142
4	0xbcca5d7d	-0.024702782
5	0x3ca1c4d6	0.019747179
6	0xbdb80598	-0.08985442
7	0xbbb4eb5f	-0.0055212225
8	0xbe06b190	-0.13153672
9	0x3dba906a	0.09109576
10	0x3ce9abdd	0.028524334
11	0x3c8ccaa9	0.01718648
12	0xbdb23330	-0.087011695
13	0xbce13cb0	-0.027494758
14	0x3cd548eb	0.026035747
15	0x3d87d81d	0.06633017

fc1.weight f4 [120, 400]
0	0xbb4c3384	-0.0031158635
1	0xbc4a9b37	-0.012366108
2	0xbca49d2b	-0.020094475
3	0xbc59bb37	-0.013289264
4	0x3c855449	0.016275542
5	0x3b86daa2	0.0041154185
6	0x3d44be07	0.048032787
7	0x3c9827e4	0.018573709
8	0x3d27f3ea	0.0410041
9	0xbd225756	-0.03963407
10	0x3bcd7d8b	0.0062710694
11	0x3d375e70	0.044767797
12	0xbce4698c	-0.02788236
13	0x3cd688fc	0.026188366
14	0x3d085b6b	0.033290308
15	0xbcf41bde	-0.029798444
16	0x3c13c388	0.009018786
17	0x3cb465ef	0.022021262
18	0x3c470840	0.012147963
19	0x3a98fb88	0.0011671642
20	0x3c9bab37	0.01900254
21	0x3ca62349	0.020280497
22	0xbc1ef7af	-0.009702607
23	0x3cc50266	0.024048995
24	0xbcb1c0df	-0.021698413
25	0x3d2889d8	0.041147083
26	0x3d591444	0.052997842
27	0x3d2fba17	0.04290208
28	0x3c110c12	0.008852975
29	0x3c28f371	0.010311947
30	0x3ce7848c	0.028261445
31	0xbcc16544	-0.023607858
32	0xbd7a6227	-0.06112876
33	0xbd5ab426	-0.05339446
34	0x3b71dbb6	0.003690464
35	0x3db016a6	0.0859807
36	0x3cd81553	0.026377356
37	0x3cb3bd6e	0.021940913
38	0xbd38e3fe	-0.045139305
39	0xbcc8b14a	-0.0244986
40	0x3ce611d4	0.028084673
41	0x3b9154c5	0.004435154
42	0xbac90e34	-0.0015339316
43	0x3c5ab097	0.013347766
44	0x3cbddb7f	0.023175953
45	0x3d914bce	0.07094537
46	0x3d72bdf5	0.05926319
47	0x3c4054b9	0.011738949
48	0x3d7c9730	0.06166762
49	0x3da29566	0.07938652
50	0xbcb41911	-0.021984609
51	0x3d256399	0.040378187
52	0xbc6f67c8	-0.014612146
53	0xbd590bff	-0.052989956
54	0xbc0c5f55	-0.008567651
55	0x3d087a28	0.033319622
56	0x3db12c90	0.08651078
57	0x3d09d7dd	0.03365313
58	0x3d8a8d1f	0.06765198
59	0x3c912334	0.017716981
60	0x3ba1bd96	0.0049359305
61	0x3d0fe473	0.035129976
62	0xbc1e41bd	-0.009659228
63	0x3b710f5f	0.0036782844
64	0xbbdd9060	-0.0067615956
65	0xbcd83b00	-0.02639532
66	0x3d0756d3	0.033041786
67	0xbc66dc10	-0.014090553
68	0xbd08c9ae	-0.03339546
69	0x3d2f6f11	0.04283053
70	0xbd46285f	-0.048378345
71	0xbd752db7	-0.05985805
72	0x3c822187	0.015885128
73	0xbd01f141	-0.03172422
74	0xbc6e054c	-0.01452763
75	0x3ddd9582	0.10819532
76	0x3d03f6fd	0.03221797
77	0x3d1e9b4d	0.038722325
78	0x3d03083d	0.03199028
79	0x3c8c5c36	0.017133813
80	0xbb4f8abe	-0.003166839
81	0x3c49a8fb	0.0123083545
82	0xbcd38dae	-0.025824394
83	0xbcbf694e	-0.023365643
84	0xbc722db8	-0.014781408
85	0x3bd10b73	0.0063795387
86	0xbcc92a96	-0.02455644
87	0x3bb854d7	0.005625348
88	0x3be321b2	0.006931507
89	0x3c43875c	0.011934128
90	0xbd167c4e	-0.03673964
91	0x3d24b832	0.040214725
92	0xbc94ec6c	-0.018179141
93	0xbcea501e	-0.028602656
94	0xbd9530ef	-0.07284724
95	0x3c14c660	0.009080499
96	0xbd431f79	-0.047637437
97	0xbd8deedd	-0.06930325
98	0xbccd622f	-0.025071232
99	0xbd9da225	-0.07696942
100	0xbc275eb1	-0.010215447
101	0x3d6e40c0	0.05816722
102	0x3d84f6a1	0.06492353
103	0xbc08ec83	-0.00835717
104	0x3d5f0e97	0.054457273
105	0xbc17f372	-0.0092743505
106	0x3ce87cd6	0.028379839
107	0x3cb8821a	0.022522975
108	0xbc15f03f	-0.009151517
109	0xbd3796f3	-0.04482169
110	0x3cff3ac1	0.031155946
111	0xbc78081f	-0.015138655
112	0x3bd015ce	0.0063502556
113	0x3d6eae8c	0.05827193
114	0x3c6ca523	0.014443669
115	0xbb82b14a	-0.0039884197
116	0xbc8346c9	-0.016024964
117	0xbd1d6953	-0.038430523
118	0x3d4dae68	0.050215155
119	0x3c1274f3	0.008939016
120	0xbcefe254	-0.029282726
121	0xbd855bba	-0.06511636
122	0xbcc664dc	-0.024218015
123	0x3bffc53d	0.007805495
124	0xbd7634d1	-0.060108963
125	0x3cdce77b	0.026965847
126	0x3c8dfc62	0.01733226
127	0x3c20a722	0.009805473
128	0xbd15bfa7	-0.036559727
129	0x3ce57d4b	0.028013846
130	0xbc2e891f	-0.010652809
131	0x3d0a1a49	0.033716474
132	0xbd17a56a	-0.037022986
133	0x3d48c756	0.049018227
134	0x3c4d5a0e	0.012533678
135	0xbd03fad5	-0.032221634
136	0xbc83fef0	-0.016112775
137	0xbceb0b01	-0.02869177
138	0xbcbc0659	-0.022952246
139	0x3c1daeb8	0.009624176
140	0xbc9f2453	-0.0194265
141	0x3caacca6	0.020849537
142	0xbcf9bdd0	-0.030486017
143	0x3d240b17	0.04004964
144	0xbd703134	-0.058640674
145	0xbd953259	-0.07284994
146	0xbd885424	-0.066566736
147	0xbd836134	-0.064150244
148	0xbd8b751f	-0.068094485
149	0xbd859142	-0.06521846
150	0x3d83f460	0.06443095
151	0x3caa69fb	0.020802489
152	0x3d30f856	0.04320558
153	0x3d129541	0.03578687
154	0x3d0794e4	0.033100978
155	0x3d0dfec8	0.034666806
156	0x3cd78674	0.02630923
157	0x3d122289	0.035677467
158	0xbcdc1516	-0.026865523
159	0xbc98fba1	-0.018674674
160	0xbc952c2d	-0.018209541
161	0xbc0907fa	-0.008363718
162	0xbd962b4a	-0.073324755
163	0xbd4b9e2e	-0.0497114
164	0xbc9b211d	-0.018936688
165	0xbc2dc025	-0.010604893
166	0x3bd6d8f2	0.0065566236
167	0x3c9979ef	0.0187349
168	0xbd806c84	-0.06270698
169	0xbd32b0ca	-0.04362563
170	0xbd2299f9	-0.03969762
171	0xbcc9b61e	-0.024622973
172	0xbb6e946f	-0.0036404391
173	0xbbef8821	-0.007309929
174	0xbd13f37b	-0.036120873
175	0x3d067e8c	0.03283553
176	0xbb4dc6d0	-0.003139902
177	0x376eae73	1.4226523e-05
178	0x3cce95c5	0.0252179
179	0xbb25e1f1	-0.0025311674
180	0xbcd24b1c	-0.02567058
181	0xbc756559	-0.014977776
182	0x3d19de18	0.03756532
183	0xbab54bfa	-0.0013831847
184	0x3b8ea87a	0.00435358
185	0x3c4629b8	0.012094907
186	0xbba2464b	-0.004952227
187	0x3d3b942f	0.045795616
188	0x3d0410fd	0.032242764
189	0xbcad22cc	-0.021134757
190	0xbc94905e	-0.018135246
191	0xbd0b096c	-0.033944532
192	0xbb16ee7a	-0.0023030327
193	0xbcf7a212	-0.030228648
194	0x3cd4b4b8	0.02596508
195	0x3ce21d85	0.027601967
196	0xbd051b44	-0.032496706
197	0xbd0e2cb8	-0.034710616
198	0x3d29dcd5	0.041470367
199	0x3cb2010f	0.02172902
200	0xbda0a82b	-0.078445755
201	0x3d188f9c	0.03724633
202	0x3c965173	0.018349385
203	0x3c0fa4ff	0.0087673655
204	0x3cc484c1	0.023989083
205	0xbd41d3d9	-0.047321174
206	0x3d516666	0.051123045
207	0x3d47e499	0.048801992
208	0x3c44d1ad	0.012012881
209	0xbd9f39d0	-0.07774699
210	0x3cb11ad5	0.02161924
211	0xbd3e1eb4	-0.046416
212	0xbd2efafa	-0.04271982
213	0x3c255e73	0.010093319
214	0xbb2a8509	-0.0026019237
215	0x3ab99982	0.0014160129
216	0xbd6ad24e	-0.05732947
217	0x3d479103	0.04872228
218	0x3cea2d7e	0.028586145
219	0xbc81e082	-0.015854124
220	0x3ce4cd61	0.027929964
221	0x3caab7a9	0.02083953
222	0xbc56e310	-0.013115659
223	0xbd7d5f34	-0.06185837
224	0xbd1171d8	-0.03550896
225	0xbd1379ed	-0.03600495
226	0xbd62fb02	-0.05541516
227	0x3c8ea326	0.01741178
228	0xbb626eda	-0.0034550936
229	0xbd062017	-0.032745447
230	0xbba6be2c	-0.005088588
231	0xb96e4a4e	-0.0002272513
232	0x3d3b5098	0.045731157
233	0xbce9d1cb	-0.02854242
234	0xbc8cba8b	-0.017178794
235	0x3c3390c5	0.010959809
236	0x3d8e0818	0.069351375
237	0x3d0e57fd	0.03475188
238	0xbcabc3b6	-0.020967346
239	0xbcfd195f	-0.030895887
240	0xbcfce394	-0.030870236
241	0xbb750d87	-0.0037392096
242	0x3ccff3f5	0.025384882
243	0x3c90ab2c	0.017659746
244	0xbd92f543	-0.07175686
245	0xbd5bf444	-0.053699747
246	0xbc2dd972	-0.010610925
247	0x3bc4a905	0.006001594
248	0xbd6512b5	-0.055926044
249	0x3b8adffb	0.0042381263
250	0x3d79cef4	0.06098838
251	0x3d47e232	0.0487997
252	0xbcb0d65c	-0.02158659
253	0xbd6f324f	-0.058397587
254	0xbd955310	-0.072912335
255	0xbcbdd080	-0.02317071

fc1.bias f4 [120]
0	0xbb40a25f	-0.0029393656
1	0xbd248001	-0.040161137
2	0xbdaf56c2	-0.085614696
3	0x3c066d02	0.0082047
4	0x3d2689fa	0.04065893
5	0x3ce29a0a	0.027661342
6	0xbd561f9c	-0.05227624
7	0xbc984338	-0.01858674
8	0xbc81ee04	-0.015860565
9	0x3cebdfba	0.028793205
10	0x3cda90a6	0.026680302
11	0x3dec2e42	0.115322605
12	0xbb7298bc	-0.0037017306
13	0xbd1527ca	-0.0364149
14	0x3d8db97c	0.06920144
15	0x3d8edf87	0.06976228
16	0xbb8e6cfa	-0.004346487
17	0xbcd8ae21	-0.026450219
18	0x3c05c0cc	0.008163642
19	0xbd05a2da	-0.03262601
20	0x3b5a2571	0.0033286477
21	0x3d37b6a3	0.04485191
22	0x3c8e1257	0.01734273
23	0xbd55ce8d	-0.052198935
24	0x3ba100c7	0.0049134227
25	0xbd4c4712	-0.049872465
26	0x3d6beca6	0.057598732
27	0x3cc9cb9a	0.024633218
28	0xbca01e9e	-0.01954585
29	0x3d9ee5c4	0.07758668
30	0x3b4799ae	0.003045659
31	0xbd2fa159	-0.042878482
32	0xbda97770	-0.08274734
33	0xbcef8592	-0.029238496
34	0x3ce9b90a	0.028530616
35	0xbc50a5d5	-0.01273485
36	0xbd1a5abc	-0.037684187
37	0x3c7b686b	0.015344719
38	0xbc3ef5ee	-0.011655314
39	0x3d77568e	0.06038528
40	0xbad68e4c	-0.0016369312
41	0xbd09e233	-0.033662986
42	0xbce26f10	-0.02764085
43	0x3d7d979f	0.061912175
44	0xbd71ae34	-0.059004024
45	0xbb6a9d72	-0.003579941
46	0xbad9e3a8	-0.0016623633
47	0xbb74acf3	-0.003733453
48	0x3d056033	0.032562446
49	0x3da226cb	0.079175554
50	0xbce930d0	-0.028465658
51	0xbc875546	-0.016520154
52	0x3ccc3548	0.02492775
53	0xbd1cf0c9	-0.038315568
54	0xbbc5f28c	-0.0060408767
55	0x3d660014	0.05615242
56	0xbdc45b54	-0.09587732
57	0x3d04f47a	0.032459714
58	0x3d01f1ad	0.03172462
59	0xbc438eaf	-0.011935874
60	0x3b32039b	0.0027162794
61	0xbd2d946d	-0.042377878
62	0x3def0844	0.116714984
63	0x3cdc601e	0.026901301
64	0x3b8b176c	0.0042447355
65	0x3da92505	0.08259014
66	0xbd398e5a	-0.045301773
67	0xbb9c7c32	-0.0047755474
68	0x3c883690	0.01662758
69	0x3b4d22fd	0.0031301372
70	0x3af0093b	0.0018313298
71	0x3c82c3b2	0.015962455
72	0x3d697039	0.05699179
73	0xba6331ec	-0.0008666802
74	0x3b922d31	0.0044609536
75	0xb9dcddd1	-0.00042126936
76	0x3d599274	0.053118184
77	0xbd2fb18c	-0.04289393
78	0x3d52f8c5	0.051506776
79	0x3ae24d7f	0.0017265527
80	0xbce0507b	-0.027382126
81	0x3d91f979	0.07127661
82	0x3d6ad623	0.057333123
83	0x3c84d471	0.016214581
84	0x3d3626f9	0.04447076
85	0xbc5d3c5b	-0.013503159
86	0x3c8835bd	0.016627187
87	0x3c3d522e	0.011555238
88	0x3c448bd9	0.011996233
89	0x3cf7071f	0.030154763
90	0x3d6074fd	0.05479907
91	0x3c9afb7c	0.018918745
92	0x3d06a5b9	0.03287289
93	0x3bdbf535	0.0067125806
94	0xbc4feb7b	-0.01269042
95	0xbd0666af	-0.03281277
96	0xbc90898e	-0.017643716
97	0x3c909dab	0.017653307
98	0xbce74ec7	-0.028235806
99	0x3c147ab5	0.009062459
100	0xbd49e510	-0.049290717
101	0xbbaf9d48	-0.0053593256
102	0x3d550810	0.052009642
103	0x3db6d6f6	0.08927719
104	0xbcb5090a	-0.022099037
105	0xbcf151c1	-0.029457929
106	0xbc55f413	-0.01305868
107	0x3d61a06e	0.05508464
108	0x3bc2357b	0.0059267855
109	0xba6a4eb3	-0.00089381187
110	0xbd7dd1a0	-0.061967492
111	0x3d4c2636	0.04984113
112	0x3c6aac86	0.014323359
113	0x3c6a9730	0.0143182725
114	0xbc278566	-0.010224676
115	0x3c72ce1e	0.01481965
116	0x3b4ac619	0.003094083
117	0xbd19226c	-0.037386343
118	0x3d87c53e	0.06629418
119	0xbc27ada0	-0.0102342665

fc2.weight f4 [84, 120]
0	0xbcde900c	-0.027168296
1	0x3c39870d	0.0113237025
2	0x3d85153e	0.06498192
3	0xba7744ff	-0.00094325835
4	0x3de220ca	0.1104141
5	0x3e2d85dd	0.16945596
6	0xbd961ce9	-0.07329733
7	0xbdd67b5a	-0.10472746
8	0x3cf5388e	0.029934194
9	0x3d39f208	0.045396835
10	0x3cd3fbd0	0.02587691
11	0x3bc6e0a3	0.0060692593
12	0xbd6a050f	-0.05713373
13	0xbdc188ef	-0.09449946
14	0x3dbc0bc4	0.091819316
15	0xbe1bd35f	-0.1521735
16	0x3d38e17c	0.045136914
17	0x3d9e10e6	0.07718067
18	0x3b37ad24	0.0028026784
19	0xbd979d39	-0.07403035
20	0x3df90150	0.121584535
21	0x3d0607d6	0.032722317
22	0xbdb0336a	-0.086035565
23	0xbd9f8be9	-0.077903576
24	0xbdba50ac	-0.09097418
25	0x3e274d09	0.1633798
26	0xbca4fc80	-0.020139933
27	0xbd899302	-0.06717493
28	0x3cfadf3c	0.030624025
29	0xbe3d3dec	-0.18480653
30	0xbd7dba18	-0.06194505
31	0xbda63536	-0.08115618
32	0x3d9560dd	0.07293866
33	0xbd1dc62b	-0.038519066
34	0x3e12c4e9	0.14332928
35	0xbdb56a31	-0.08858145
36	0xbcaa254c	-0.020769738
37	0x3d19622b	0.037447136
38	0xbd55bd85	-0.052182693
39	0x3dab7529	0.08371956
40	0xbd573612	-0.0525418
41	0x3c2bfda1	0.010497482
42	0xbdc225a8	-0.094798386
43	0x3d8031e9	0.062595196
44	0xba669061	-0.0008795318
45	0x3bc9605f	0.0061455215
46	0x3c2edab4	0.01067226
47	0x3d60c6f2	0.05487723
48	0x3cfe7098	0.031059548
49	0xbd5bae4c	-0.05363302
50	0x3b97650e	0.004620201
51	0xbc79aa1d	-0.015238312
52	0x3e06f0cd	0.13177796
53	0x3ddf3b39	0.10899968
54	0x3cf14c2c	0.029455267
55	0x3cdbf438	0.026849851
56	0xbb982a6c	-0.004643729
57	0x3d6eb08e	0.058273844
58	0x3d861749	0.0654741
59	0x3dcc21a5	0.09967355
60	0x3d95527b	0.072911225
61	0xbdf49884	-0.119431525
62	0xbcefcfb9	-0.029273855
63	0xbc9b96a2	-0.018992726
64	0x3e24cf6a	0.16094747
65	0xbe01ef43	-0.12688927
66	0xbd6ffe8b	-0.05859236
67	0xbcabb018	-0.020957991
68	0xbd8248de	-0.063615546
69	0xbda9d4fa	-0.08292575
70	0x3db4c8d7	0.0882737
71	0xbdceb826	-0.10093717
72	0xbda8846f	-0.08228385
73	0xbcbfe320	-0.023423731
74	0xbd438c8a	-0.04774145
75	0x3d3b1051	0.045669857
76	0xbdbcb020	-0.09213281
77	0xbd821a84	-0.06352714
78	0x3da4ad20	0.080408335
79	0xbcd3ed88	-0.0258701
80	0x3cb8d943	0.022564536
81	0x3db12ad4	0.08650747
82	0x3e03ac8f	0.12858795
83	0xbd7081a3	-0.05871738
84	0x3e272969	0.1632439
85	0xbdad9976	-0.08476536
86	0xbd9093a7	-0.070594124
87	0x3df785fa	0.12086101
88	0x3dad4f65	0.08462409
89	0xbd287232	-0.04112453
90	0xbd62e56b	-0.05539457
91	0xbdac7443	-0.08420613
92	0xbd349619	-0.044088457
93	0xbbd4f214	-0.0064985845
94	0x3d833c90	0.06408036
95	0xbd8d2dc0	-0.06893492
96	0x3dbfd051	0.09365905
97	0xbd4de953	-0.050271343
98	0x3db3c494	0.08777729
99	0x3d3fb81f	0.04680645
100	0x3db491ee	0.088168964
101	0x3d8e0dd9	0.06936235
102	0x3dab1cf8	0.08355135
103	0xbde32694	-0.110913426
104	0xbd4f505e	-0.050613753
105	0x3d0c901a	0.034317113
106	0x3ddae664	0.10688475
107	0xbcf44e0f	-0.029822377
108	0xbcdbed29	-0.026846485
109	0xbddaafa8	-0.10678035
110	0x3dd39e0b	0.10332879
111	0x3ddd6822	0.108108774
112	0x3ac5e900	0.0015099347
113	0x3d132232	0.035921283
114	0x3d8d2faf	0.068938605
115	0x3c7d9910	0.0154783875
116	0x3d82189e	0.063523516
117	0x3dc70ac8	0.09718853
118	0xbe0a9af2	-0.1353567
119	0x3da942fa	0.08264728
120	0xbcdc3ca2	-0.02688438
121	0xbd2ffa4b	-0.042963307
122	0x3d589447	0.052875783
123	0x3d6486a3	0.055792462
124	0xbc35f723	-0.011106285
125	0xbbd32fce	-0.0064449077
126	0xbd9a1a19	-0.07524509
127	0x3d4e94ad	0.050434757
128	0x3d42c4bd	0.047550905
129	0xbd0e7756	-0.034781776
130	0xbce55efb	-0.027999392
131	0xbdaf0516	-0.08545892
132	0xbd12746c	-0.03575556
133	0xbd0fe71a	-0.035132505
134	0xbdc211fa	-0.09476085
135	0x3d8978e0	0.06712508
136	0xbd9854ff	-0.07438087
137	0x3db5fd55	0.0888621
138	0xbccdd996	-0.025128167
139	0xbda16af5	-0.078817286
140	0x3d5078d1	0.05089647
141	0x3c6a1975	0.014288296
142	0xbd00006d	-0.031250406
143	0x3d63b6e2	0.055594333
144	0xbd46deef	-0.04855245
145	0x3de09745	0.109663524
146	0xbd52e615	-0.051488955
147	0x3dee8dc0	0.116481304
148	0xbdafec4c	-0.08589992
149	0xbc94c75c	-0.018161468
150	0x3c78b1b1	0.015179084
151	0xbdaec89e	-0.085343584
152	0xbdaa7cf8	-0.08324617
153	0x3ce1f074	0.027580477
154	0xbd46f22b	-0.048570793
155	0x3d8ba1ae	0.06817947
156	0x3d345bc6	0.044032834
157	0x3d5191ef	0.051164564
158	0xbda3c842	-0.079971805
159	0xbdbf0f05	-0.093290366
160	0x3dbc09e7	0.09181576
161	0xbd9a3351	-0.07529319
162	0xbcfb22a1	-0.03065616
163	0x3d836ed1	0.06417621
164	0x3d3b21bd	0.045686472
165	0x3ca76627	0.020434452
166	0xbda9a55c	-0.08283493
167	0x3a2a6ece	0.00065014965
168	0x3d9b5c75	0.07585994
169	0x3d0e2895	0.03470667
170	0xbc4e09db	-0.012575592
171	0xbd8de17b	-0.069277726
172	0x3d3c36e7	0.045950796
173	0xbdc0b47a	-0.09409423
174	0xbc0cd02c	-0.008594554
175	0x3cabc3f7	0.020967467
176	0xbb2b3add	-0.0026127615
177	0xbd52d9ac	-0.05147712
178	0x3d9ba052	0.07598938
179	0x3d094cfc	0.033520684
180	0xbc35c697	-0.011094711
181	0x3dd653d9	0.104652114
182	0xbd93e7d7	-0.07221954
183	0x3cb4b799	0.022060202
184	0xbc339e6f	-0.0109630665
185	0x3c3716b0	0.011174843
186	0xbd5da3ed	-0.05411141
187	0x3d0ec7ad	0.034858394
188	0x3dafa567	0.0857647
189	0x3d8e5b2b	0.06950983
190	0x3d5fbe08	0.054624587
191	0xbdb9787c	-0.09056184
192	0xbd9cbec4	-0.07653573
193	0xbdc012c0	-0.09378576
194	0x3da56c9a	0.08077355
195	0xbcdfad26	-0.027304243
196	0x3d33663b	0.043798666
197	0xbdd1dd4f	-0.102472894
198	0x3d7850f5	0.06062408
199	0x3b8063d2	0.0039181495
200	0x3d92a4ec	0.071603626
201	0xbd005f7c	-0.03134106
202	0x3cf7f773	0.03026936
203	0xbd1efc3c	-0.03881477
204	0x3cb0a6d9	0.021563934
205	0x3dcf086e	0.1010903
206	0xbd6e537e	-0.058185093
207	0xbd27ce54	-0.040968254
208	0xbcc7636b	-0.024339398
209	0x3c85c565	0.016329477
210	0x3c79d4b5	0.015248467
211	0xbceedd01	-0.029158117
212	0x3d86fabd	0.06590793
213	0xbdade6e0	-0.084913015
214	0x3d253dbd	0.04034208
215	0xbbd56b44	-0.006513031
216	0xbda53f4a	-0.08068712
217	0xbb9dd890	-0.004817076
218	0xbd2dd4fb	-0.042439442
219	0xbd93e48e	-0.07221328
220	0xbd800087	-0.062501006
221	0xbc250aa0	-0.010073334
222	0xbcd1c361	-0.02560586
223	0xbce94d77	-0.02847932
224	0xbc5c04af	-0.013428851
225	0x3d372d87	0.044721153
226	0xbd695c5c	-0.056972846
227	0x3d23a647	0.039953496
228	0x3d9796ed	0.07401834
229	0x3d87c204	0.066288024
230	0x3cae5188	0.021279112
231	0xbcd378ee	-0.0258145
232	0xbd9df6ca	-0.07713087
233	0xbd096e5f	-0.033552524
234	0x3bc33b07	0.0059579643
235	0xbd44c5d4	-0.048040226
236	0xbdb7baef	-0.08971202
237	0xbcaaf670	-0.020869464
238	0xba41ca82	-0.0007392542
239	0xbd10f7e8	-0.03539267
240	0xbd6aa4c6	-0.057286046
241	0x3cbdfb3d	0.023191089
242	0x3d94e53b	0.07270285
243	0x3d98a65a	0.07453604
244	0xbcaac03f	-0.020843623
245	0x3ba22803	0.0049486174
246	0x3be5ab32	0.0070089335
247	0x3d54ac6c	0.051922247
248	0x3a1e9372	0.0006049193
249	0x3dafb8f4	0.08580199
250	0xbc9eca61	-0.019383611
251	0xbd5e7c9a	-0.054318048
252	0xbc2e7e23	-0.0106501905
253	0x3d8098bb	0.06279131
254	0xbd99233d	-0.07477424
255	0xbdc13b4f	-0.0943514

fc2.bias f4 [84]
0	0x3d1702f3	0.036868047
1	0xbd8f5f82	-0.070006385
2	0x3d28b3ea	0.041187204
3	0x3dd1a8fc	0.10237309
4	0x3dc2c134	0.09509507
5	0xbcfa720c	-0.03057196
6	0xba6bcdee	-0.00089952245
7	0x3d3ccc91	0.046093527
8	0x3de45c3a	0.11150403
9	0x3d8947a1	0.06703115
10	0xbc953ba0	-0.018216908
11	0xbd226c26	-0.03965392
12	0x3c5768bc	0.013147529
13	0x3e1d6580	0.1537075
14	0x3d9d09d7	0.076678924
15	0xbd2ed1a3	-0.042680394
16	0xbd7aad39	-0.061200354
17	0xbdb0816f	-0.086184375
18	0x3d42dd23	0.047574174
19	0xbd0c4c94	-0.034252718
20	0xbc483868	-0.01222048
21	0xbd0ce939	-0.034402106
22	0xbdb092f4	-0.08621779
23	0xbd9f8c59	-0.07790441
24	0x3a0da8ee	0.00054038956
25	0x3cc1ba42	0.023648385
26	0xbc2c3a63	-0.010511967
27	0x3b8f513d	0.004373698
28	0x3d187139	0.037217353
29	0xbc32d29f	-0.010914474
30	0x3e262c17	0.16227756
31	0xbbcef618	-0.0063159578
32	0x3dc3d5e0	0.09562278
33	0x3b70f47e	0.0036766822
34	0xbdcc630d	-0.0997983
35	0x3dac4b1a	0.08412762
36	0xbc69cf3a	-0.014270598
37	0xbc4007ab	-0.011720578
38	0xbd1a2c27	-0.037639763
39	0xbdb468f2	-0.08809079
40	0xbd13c704	-0.036078468
41	0xbd36577a	-0.044517018
42	0x3e021ac3	0.12705521
43	0xbdc788c6	-0.09742884
44	0xbcac7ebb	-0.021056524
45	0x3e36fd99	0.17870177
46	0xbd2fa2e9	-0.042879973
47	0xbaea20ea	-0.0017862592
48	0x3c5123d8	0.0127648935
49	0xbcc2a3b1	-0.023759695
50	0xbd9f3e41	-0.07775546
51	0x3a435e49	0.0007452709
52	0x3d766bf1	0.060161535
53	0x3e3cd4db	0.18440573
54	0xbd7f5e3d	-0.062345732
55	0xbd8bdc38	-0.06829113
56	0x3cad1962	0.021130268
57	0xbd498078	-0.049194783
58	0xbd37c760	-0.044867873
59	0x3dcb3d23	0.0992377
60	0x3dd49ce4	0.10381487
61	0x3c907201	0.017632486
62	0xbc8bb5f4	-0.017054535
63	0xbd8f0484	-0.06983283
64	0xbd8338a9	-0.064072914
65	0x3dc3bf82	0.095580116
66	0x3da80da3	0.08205726
67	0xbcccb206	-0.024987232
68	0xbd21e906	-0.03952887
69	0x3cea3952	0.028591786
70	0xbbe7490e	-0.0070582693
71	0xbc1f461e	-0.009721307
72	0x3c987a79	0.018613087
73	0x3cf0f4c7	0.029413594
74	0x3e0a9101	0.13531877
75	0xbd2b250d	-0.04178338
76	0xbd886150	-0.06659186
77	0xbcfd8aa9	-0.030949907
78	0xbd4ec5cb	-0.0504816
79	0xbdb01750	-0.085981965
80	0xbdcab45c	-0.09897682
81	0x3d978df1	0.0740012
82	0x3d925058	0.071442306
83	0xbd8d363c	-0.0689511

fc3.weight f4 [10, 84]
0	0x3d89b2a1	0.06723524
1	0x3c72a30f	0.014809384
2	0x3dcb9021	0.099396
3	0xbe2bdb07	-0.16782771
4	0x3d96d0e6	0.07364063
5	0x3c566680	0.013085961
6	0xbddba9e2	-0.10725762
7	0xbd76960a	-0.060201682
8	0xbe265816	-0.1624454
9	0x3cf5bc58	0.029997036
10	0x3e710098	0.23535383
11	0x3d2df4eb	0.0424699
12	0xbd5f8ba7	-0.054576542
13	0xbd7fb8c8	-0.06243208
14	0xbb32f307	-0.00273055
15	0x3e6201f8	0.22071064
16	0xbc9f4b8b	-0.019445201
17	0x3dff5bfb	0.12468716
18	0x3e185423	0.14875846
19	0x3d8869b1	0.06660784
20	0xbe1479a5	-0.14499529
21	0xbd7b4ea4	-0.061354294
22	0x3d1435cf	0.03618413
23	0x3dbe0fec	0.092803806
24	0x3dda4e75	0.10659496
25	0x3e5fbc53	0.21849184
26	0x3d8247f7	0.063613825
27	0xbda977b6	-0.08274786
28	0x3e391d53	0.18077593
29	0x3c290743	0.010316673
30	0xbe1519d3	-0.14560632
31	0xbe1cc04d	-0.15307732
32	0x3e05c4e2	0.13063386
33	0xbd916ba5	-0.0710061
34	0x3c9d234f	0.019181876
35	0x3d5691aa	0.05238501
36	0x3de816a1	0.11332441
37	0xbdca2bbd	-0.09871624
38	0xbe4409a1	-0.19144298
39	0xbcd35d17	-0.025801225
40	0x3e0b4348	0.13599885
41	0x3d0f1503	0.034932148
42	0x3d9cc63b	0.07654997
43	0x3c6e5837	0.014547399
44	0x3e1c8a1d	0.15287061
45	0xbdda582b	-0.10661348
46	0x3d681ce3	0.056668174
47	0xbdf1330b	-0.11777314
48	0x3eb62fc4	0.35583317
49	0x3e069314	0.13142043
50	0xbdd87fcb	-0.105712496
51	0xbd480c25	-0.048839707
52	0xbe125100	-0.14288712
53	0xbe3a9407	-0.1822053
54	0xbc8e58f0	-0.017376393
55	0x3c12bb6a	0.008955816
56	0x3ea6bffc	0.32568347
57	0x3d71d2d0	0.059038937
58	0xbdde138c	-0.10843572
59	0xbdf5399c	-0.11973879
60	0xbe2b56df	-0.16732357
61	0x3e533962	0.20627359
62	0x3ddc3ce9	0.10753805
63	0x3e01cc2e	0.12675545
64	0x3b17b69b	0.0023149613
65	0x3e22154c	0.15828437
66	0xbd0a6d4b	-0.033795636
67	0x3d93da5a	0.07219382
68	0x3d89c586	0.06727128
69	0xbcbae436	-0.022813898
70	0x3e492863	0.19644313
71	0xbd95ab58	-0.07308072
72	0xbe6a2db6	-0.22869
73	0xbc579304	-0.01315761
74	0xbe86245a	-0.2619961
75	0x3d766f4d	0.06016474
76	0xbcdb7fc2	-0.026794318
77	0xbdc1cde7	-0.09463101
78	0x3d8430e6	0.06454639
79	0xbdbaa351	-0.091131814
80	0xbdce1655	-0.10062853
81	0x3d1d48d6	0.03839954
82	0xbd0daf68	-0.03459111
83	0x3e88d10f	0.26722
84	0x3e95cffc	0.29260242
85	0x3d2933e7	0.041309264
86	0x3c3f840d	0.011689198
87	0x3d2e1a37	0.04250547
88	0xbe8010b2	-0.25012738
89	0x3e8b4e20	0.27208042
90	0xbdc45424	-0.09586361
91	0xbe10843c	-0.14112943
92	0x3e160948	0.14651978
93	0xbd98e98a	-0.07466419
94	0xbdbc9150	-0.09207404
95	0x3c971826	0.018444132
96	0x3dcdc965	0.100481786
97	0xbe22fd9e	-0.1591706
98	0xbd2fb020	-0.042892575
99	0x3d56dc71	0.052456323
100	0x3d04ef55	0.032454807
101	0xbd74bb37	-0.059748854
102	0xbdd85260	-0.10562587
103	0x3e1bbc37	0.15208517
104	0xbdd8f871	-0.105942614
105	0xbd34753a	-0.04405711
106	0xbdb0fa76	-0.08641522
107	0xbd98c84c	-0.074600786
108	0xbcca41a9	-0.024689512
109	0x3e59f394	0.21284324
110	0x3e46276a	0.19350973
111	0xbdad3c2e	-0.08458744
112	0xbdff8ee2	-0.124784246
113	0x3e21e38b	0.15809457
114	0xbe0f7935	-0.1401108
115	0xbbad4c2c	-0.0052886214
116	0x3d80638c	0.06268987
117	0x3ba9b5d2	0.0051791454
118	0xbdf32474	-0.11872187
119	0xbdb1c927	-0.08680945
120	0x3e5bead8	0.21476305
121	0xbe47b0ca	-0.19501033
122	0x3da68dbf	0.08132505
123	0x3da9795b	0.082751
124	0x3e74047b	0.23829834
125	0xbd426754	-0.047461823
126	0xbd03782d	-0.03209703
127	0xbd019b3e	-0.03164219
128	0x3ce38718	0.027774379
129	0xbc9a5efe	-0.018844124
130	0x3e806bd5	0.2508227
131	0x3d94ff03	0.07275202
132	0x3cb21e90	0.021743089
133	0xbe3984a7	-0.18117009
134	0x3d765f3b	0.060149413
135	0xbe688729	-0.2270781
136	0x3da3bf58	0.0799548
137	0xbe2e57cd	-0.17025681
138	0xbd3555a9	-0.044271145
139	0x3d91f963	0.07127645
140	0x3dc2f3d4	0.09519163
141	0xbe99c11a	-0.30030137
142	0x3c83d93e	0.0160948
143	0xbca92f04	-0.020652302
144	0x3d08755e	0.033315055
145	0xbe9add5e	-0.30247015
146	0x3d8763f3	0.06610861
147	0xbe6c2478	-0.23060787
148	0x3d2293de	0.0396918
149	0x3c8e7960	0.01739186
150	0xbdda2d0f	-0.106531255
151	0xbe5becbb	-0.21477024
152	0xbc14fb6e	-0.009093149
153	0xbdb50bbb	-0.08840128
154	0xbe279d1d	-0.16368528
155	0x3e04cac8	0.1296798
156	0xbd80da14	-0.06291595
157	0x3cf764fd	0.030199522
158	0xbe553423	-0.2082067
159	0xbd0ac1d2	-0.033876248
160	0x3e9c392a	0.30512363
161	0x3ca6b65a	0.020350624
162	0x3c206c1e	0.009791402
163	0xbdc74c14	-0.097313076
164	0x3e016c21	0.12638904
165	0xbdde84a2	-0.108651415
166	0x3e769bdc	0.24082893
167	0xbd910451	-0.070809014
168	0xbdc44c81	-0.095849045
169	0xbe069257	-0.13141762
170	0xbd3323ef	-0.04373544
171	0xbe51dae9	-0.20493664
172	0x3d784886	0.06061604
173	0xbe3234dd	-0.17402978
174	0xbcd65472	-0.026163314
175	0x3a301877	0.0006717513
176	0xbce55e8b	-0.027999183
177	0x3d1a4636	0.037664615
178	0x3d757f81	0.05993605
179	0x3c81479d	0.015781218
180	0x3db45183	0.088046096
181	0x3d8823ae	0.0664743
182	0xbc63ec01	-0.013911248
183	0x3e5969c5	0.21231754
184	0xbd78e9cb	-0.060769837
185	0xbd898cc4	-0.06716302
186	0x3e11bade	0.1423144
187	0x3db8ef9c	0.09030077
188	0xbd5b48dc	-0.05353628
189	0x3e07bacd	0.13254853
190	0xbddc5caf	-0.107598655
191	0xbe068e13	-0.13140135
192	0xbce2a462	-0.027666274
193	0x3d31f077	0.043442216
194	0x3d8a07ab	0.06739744
195	0x3e89f30a	0.26943237
196	0x3e4db52d	0.20088644
197	0x3dd393fa	0.10330959
198	0x3dc54988	0.096331656
199	0xbe708d42	-0.23491386
200	0x3d2f1bdb	0.042751174
201	0xbc0399b3	-0.00803225
202	0x3c7bb9b1	0.0153640965
203	0x3df060c2	0.11737205
204	0xbd96bcaf	-0.07360207
205	0x3e57d2e6	0.21076545
206	0xbe80bc27	-0.2514355
207	0x3db3a97d	0.08772562
208	0xbc9ab814	-0.018886603
209	0xbd744f35	-0.05964585
210	0x3e2a7e3e	0.1664972
211	0xbd170ede	-0.036879413
212	0x3d088267	0.033327486
213	0x3df571f0	0.119846225
214	0xbd7296ae	-0.05922573
215	0x3de6bda2	0.11266638
216	0xbe078e3d	-0.13237853
217	0x3d822614	0.06354919
218	0xbd9688f5	-0.07350341
219	0xbddcee7d	-0.107876755
220	0xbdfc0458	-0.12305516
221	0x3e78763a	0.2426385
222	0xbd0d3709	-0.034476314
223	0xbd05f8c3	-0.03270794
224	0x3deda109	0.11602981
225	0x3e23e215	0.16004212
226	0x3d83c913	0.06434836
227	0x3e28afff	0.16473387
228	0x3e4b5b32	0.19859007
229	0x3e140630	0.14455485
230	0xbc1a47ef	-0.009416564
231	0x3da61fb8	0.081115186
232	0x3d82b436	0.06382029
233	0xbde44826	-0.11146574
234	0xbbe269be	-0.006909578
235	0xbd0a1af2	-0.033717103
236	0x3dc4977a	0.09599204
237	0x3e075b0b	0.13218324
238	0x3db20060	0.08691478
239	0xbda22b48	-0.079184115
240	0xbe14ffc7	-0.14550696
241	0x3e7c2a60	0.2462554
242	0xbdafd2f2	-0.085851565
243	0x3daca478	0.084298074
244	0xbc9aaa0b	-0.01887991
245	0x3c8000cd	0.015625382
246	0x3c88fc9c	0.016722016
247	0x3dc9f6dc	0.09861538
248	0xbde0fa24	-0.109852105
249	0x3c3179a9	0.010832229
250	0x3dcb718f	0.09933769
251	0x3db9d42c	0.09073672
252	0xbe1d1d97	-0.15343319
253	0xbddc98ed	-0.10771356
254	0xbdca4d86	-0.09878068
255	0xbdfb1bb1	-0.12261141

fc3.bias f4 [10]
0	0xbe4ff406	-0.20307931
1	0x3db59c0d	0.08867655
2	0x3db4e7e7	0.08833294
3	0x3d8132a2	0.063084856
4	0x3e78fd00	0.24315262
5	0xbe954a24	-0.29158127
6	0x3df6d764	0.12052801
7	0xbdf0fd6d	-0.11767087
8	0x3c3b0d25	0.011416708
9	0xbd7f7808	-0.06237033
