Lab 4/task1-audio/model.pt (torch, 113345 bytes, 26 tensors)

weight f4 [32, 1, 80]
0	0x3d0cf426	0.034412526
1	0x3dbb4cda	0.09145518
2	0xbc84a73d	-0.016193027
3	0xba2fb808	-0.0006703143
4	0xbddd2323	-0.107977174
5	0xbd9a81c6	-0.075442836
6	0xbdf00ac0	-0.117208004
7	0x3c765b82	0.015036466
8	0xbccce65f	-0.025012193
9	0xbdb0e1cd	-0.08636818
10	0xbce98aae	-0.02850851
11	0x3d88c350	0.06677878
12	0x3d8939d5	0.06700484
13	0x3cc5719e	0.024102028
14	0x3c30b98e	0.010786427
15	0x3d316d2e	0.043317012
16	0xbcd23e96	-0.025664609
17	0x3da0af48	0.07845932
18	0x3d9ec58b	0.07752522
19	0xbdb4d627	-0.08829909
20	0x3d3a1508	0.045430213
21	0xbc8eac51	-0.017416151
22	0xbcd4c6da	-0.025973726
23	0x3cd889fd	0.026432985
24	0xbd1476d3	-0.036246132
25	0x3c4244d0	0.0118572265
26	0xbd4bebbc	-0.04978536
27	0xbdc9008b	-0.09814557
28	0x3d46cce1	0.04853523
29	0xbd27e914	-0.040993765
30	0x3ddc7603	0.107646964
31	0x3daa8bdd	0.08327458
32	0x3e05f830	0.13082957
33	0x3c72c1ac	0.014816683
34	0xbd214965	-0.039376635
35	0xbcc99671	-0.024607869
36	0x3dc8c308	0.09802824
37	0x3dc350cf	0.095368974
38	0x3c2fa202	0.010719778
39	0xbd88cac4	-0.066792995
40	0xbd912d1f	-0.07088684
41	0x3d836962	0.064165846
42	0x3da9ef2a	0.0829757
43	0x3da9d7c1	0.08293105
44	0xbd8023f9	-0.06256861
45	0x3d21610b	0.039399188
46	0xbd1c9b59	-0.03823409
47	0x3db35acb	0.08757552
48	0xbd9b188d	-0.07573042
49	0xbcd32a80	-0.025777102
50	0xbcd288f8	-0.025700077
51	0x3db2069c	0.08692667
52	0xbcff8253	-0.031190073
53	0xbdbc266d	-0.09187017
54	0x3d71801f	0.058960076
55	0x3db9b5b8	0.09067863
56	0xbdde7e65	-0.108639516
57	0xbcc26ac5	-0.023732552
58	0x3d2a9199	0.04164276
59	0x3d76b86c	0.060234472
60	0xbb51d47f	-0.0032017527
61	0x3d62738c	0.055285975
62	0xbd3c58b9	-0.04598305
63	0xbd2a4772	-0.04157204
64	0x3d4f69e0	0.05063808
65	0x3df02e1d	0.117275454
66	0x3d578ba8	0.05262342
67	0x3ddecb27	0.10878592
68	0x3d3b59af	0.045739826
69	0x3d82f980	0.063952446
70	0xbd662422	-0.056186803
71	0xbdb47772	-0.08811845
72	0x3d317819	0.043327425
73	0x3cd3522f	0.025796024
74	0xbcb7a06a	-0.022415359
75	0x3d89f560	0.06736255
76	0x3da3d8b9	0.08000321
77	0xb96c93fc	-0.00022561842
78	0xbdb826b4	-0.08991757
79	0xbdc50596	-0.09620206
80	0x3ddfa874	0.10920802
81	0x3d88271a	0.06648083
82	0xbd49bacd	-0.049250413
83	0x3b8d13f9	0.0043053594
84	0x3c999174	0.018746115
85	0x3c299b67	0.010351992
86	0xbddd4353	-0.10803857
87	0xbd2968b9	-0.041359637
88	0x3d98df16	0.07464425
89	0x3dedd234	0.11612359
90	0xbd03fee7	-0.032225516
91	0x3dc3157f	0.095255844
92	0xbd490f66	-0.04908695
93	0x3d5b9da5	0.05361714
94	0x3dca20b9	0.098695226
95	0xbd8b2aa2	-0.06795241
96	0x3d0337c3	0.0320356
97	0xbd761566	-0.060079
98	0x3dcd5bca	0.10027273
99	0xbd843d42	-0.064569965
100	0x3da571fc	0.080783814
101	0x3da1794f	0.07884466
102	0xbdebf484	-0.11521247
103	0x3d0d1c3e	0.034450762
104	0x3be2921b	0.00691439
105	0x3dbbfcb0	0.09179056
106	0xbce25bdb	-0.02763169
107	0x3dd2d9dd	0.102954604
108	0xbb9fd188	-0.004877273
109	0xbdc8f5c7	-0.09812503
110	0xbd419138	-0.047257632
111	0xbdb46a23	-0.088093065
112	0xbd59c0b1	-0.05316228
113	0xbd6906e4	-0.056891337
114	0xbca8ba23	-0.02059657
115	0xbdd1e0d5	-0.102479614
116	0xbdcd2e78	-0.10018629
117	0x3d077f36	0.033080302
118	0x3dc4e08f	0.09613144
119	0xbd66142f	-0.056171592
120	0x3b7e54a7	0.003880778
121	0xbd3b584b	-0.0457385
122	0x3b7eff22	0.0038909395
123	0xbd794ec3	-0.06086613
124	0x3cb6640c	0.022264503
125	0xbdd4c971	-0.103899844
126	0xbb1eadb8	-0.002421243
127	0xbdc72960	-0.097246885
128	0xbcec325d	-0.028832609
129	0x3d62b1a7	0.055345204
130	0x3c6e1aaa	0.014532724
131	0x3d28846a	0.041141905
132	0xbd17bc6e	-0.037044935
133	0xbd6a269c	-0.057165727
134	0xbdb6a11f	-0.0891745
135	0x3cb979ee	0.022641148
136	0x3df322af	0.1187185
137	0xbdacf164	-0.08444479
138	0xbc83e739	-0.016101466
139	0xbd92ba85	-0.07164482
140	0xbdcd8813	-0.1003572
141	0xbd4c9ecd	-0.04995613
142	0xbd49dbea	-0.049281992
143	0x3c15b944	0.009138409
144	0x3dd7dbb2	0.105399504
145	0x3d978b97	0.073996715
146	0xbd9c9420	-0.0764544
147	0xbcaf9163	-0.02143163
148	0x3bf7261e	0.0075423857
149	0x3d3c8f94	0.046035364
150	0x3c6dea5c	0.014521208
151	0xbd844573	-0.06458559
152	0xbd63ca1e	-0.055612676
153	0xbdc834a1	-0.09775663
154	0xbda6ef30	-0.0815109
155	0x3d4ee518	0.05051145
156	0x3d04b40b	0.032398265
157	0xbcc3c4f8	-0.023897633
158	0x3de787e8	0.11305219
159	0x3d4fbd86	0.050717853
160	0xbdce3bc1	-0.10069991
161	0xbdb9a4d9	-0.09064645
162	0xbda7f96a	-0.08201869
163	0xbd9211ec	-0.071323246
164	0x3d0b6fe6	0.03404226
165	0x3dce3f88	0.100707114
166	0x3d6cabc9	0.057781015
167	0xbd0acad6	-0.033884846
168	0xbdc8eea6	-0.098111436
169	0xbdbfe190	-0.093691945
170	0x3ae828e6	0.0017712384
171	0xbb65f0b4	-0.0035086097
172	0xbcc981ca	-0.024598021
173	0x3dd8acc3	0.10579827
174	0xbd9fa3f9	-0.07794947
175	0xbd2cd5ff	-0.04219627
176	0xbc192123	-0.009346279
177	0xbd815cc1	-0.063165195
178	0xbbff6310	-0.0077937916
179	0x3ddba5c3	0.10724976
180	0x3cb763d3	0.022386467
181	0xbd8d05df	-0.068858854
182	0xbdbcd3e9	-0.09220106
183	0xbd5b1603	-0.05348779
184	0xbc648425	-0.013947521
185	0xbdb37859	-0.08763189
186	0x3d929b52	0.07158531
187	0x3d90b57d	0.07065866
188	0x3d2379b7	0.039911
189	0xbd40c992	-0.047067232
190	0x3c9838bd	0.018581742
191	0x3d3d6b95	0.046245176
192	0xbc8a9191	-0.016915115
193	0xbd89cb81	-0.067282684
194	0x3d575dad	0.05257957
195	0xbd311308	-0.04323104
196	0x3d83dda5	0.0643876
197	0xbdca420c	-0.09875879
198	0xbd867784	-0.065657645
199	0x3d7b93d9	0.061420295
200	0x3d6a5e0e	0.057218604
201	0x3d830903	0.06398203
202	0x3c0c5de1	0.008567304
203	0xbcf28651	-0.029605063
204	0x3ca9d8a9	0.020733194
205	0xbd56bb4a	-0.052424707
206	0x3c9d9a80	0.01923871
207	0xbc214c9b	-0.009844924
208	0xbdff81b8	-0.12475914
209	0xbdbe315b	-0.092867576
210	0xbd65f9e4	-0.056146517
211	0xbdb87e44	-0.09008458
212	0x3c38f76d	0.01128946
213	0x3baf736e	0.0053543365
214	0x3b79f909	0.0038142821
215	0xbcf5a8bf	-0.029987691
216	0x3d9d773d	0.076887585
217	0x3c3ce9a5	0.011530315
218	0x3d898d50	0.06716406
219	0xbc3d5757	-0.011556468
220	0x3dbcd9fb	0.09221264
221	0xbcc7748d	-0.024347568
222	0x3d2445e1	0.040105704
223	0xbdaf3c84	-0.08556464
224	0x3d618866	0.05506172
225	0x3debd44a	0.115151
226	0xbcc41eba	-0.023940433
227	0x3d38300c	0.044967696
228	0xbdd1a032	-0.10235633
229	0x3dcc2b92	0.09969248
230	0x3d2ea729	0.042639885
231	0x3da23b4d	0.07921467
232	0x3de9f8c0	0.114243984
233	0x3de7ce0f	0.113185994
234	0x3b076e43	0.0020665086
235	0xbd3e06d2	-0.046393223
236	0x3db5a191	0.08868707
237	0x3cdb5cca	0.026777644
238	0xbdbbff63	-0.091795705
239	0xbd76c8ea	-0.0602502
240	0x3dadfc3f	0.08495378
241	0xbdd42125	-0.10357884
242	0x3da6c9a7	0.08143931
243	0x3da8d136	0.08243029
244	0x3d3c2e5a	0.04594264
245	0x3d022fad	0.03178375
246	0xbbd88261	-0.0066073393
247	0xbce7c67e	-0.02829289
248	0xbc75c505	-0.015000586
249	0x3d8bf01a	0.06832905
250	0x3dc2e3bb	0.095160924
251	0xbd895c17	-0.06707018
252	0xbd248546	-0.040166162
253	0xbda7b06c	-0.08187947
254	0x3dc913dc	0.09818241
255	0xbd27a8fb	-0.040932637

bias f4 [32]
0	0xbdbe8499	-0.09302635
1	0x3db4d493	0.08829608
2	0xbc906caa	-0.01762994
3	0x3cce807b	0.025207749
4	0xbd2088f3	-0.039193105
5	0x3bd5881f	0.006516471
6	0xbdba4ae6	-0.09096317
7	0xbcf5adea	-0.029990155
8	0x3d0fe935	0.035134513
9	0xbd19a827	-0.03751388
10	0x3cb007c7	0.021488084
11	0xbda9ff77	-0.08300679
12	0xbd8b2f0d	-0.067960836
13	0xbc2b7c1a	-0.0104666
14	0xbdd894d7	-0.10575264
15	0x3d421ac8	0.04738882
16	0xbd1ccc0d	-0.038280535
17	0xbc3a410e	-0.011368049
18	0xba749173	-0.0009329535
19	0xbc4b4939	-0.012407594
20	0xbdc3b405	-0.095558204
21	0x3c18c1ab	0.009323518
22	0xbb0cb446	-0.0021469756
23	0x3d9f36c4	0.077741176
24	0xbd9e58c9	-0.07731778
25	0x3db8cbfb	0.09023281
26	0x3c69a664	0.014260862
27	0x3d4a64ef	0.049412664
28	0x3d994e4e	0.074856386
29	0x3d43153c	0.047627673
30	0x3dc8ca8c	0.09804258
31	0xbd844c16	-0.06459825

weight f4 [32]
0	0x3f803f19	1.0019256
1	0x3f7bb933	0.98329467
2	0x3f837bdc	1.0272174
3	0x3f7c4adf	0.98551744
4	0x3f7d73da	0.990049
5	0x3f7e5f13	0.9936382
6	0x3f805a11	1.0027486
7	0x3f7d42f5	0.98930293
8	0x3f802d09	1.0013744
9	0x3f80957c	1.0045619
10	0x3f7dbc62	0.99115574
11	0x3f7e0ae8	0.9923539
12	0x3f7fd38f	0.9993219
13	0x3f80be2a	1.0058033
14	0x3f7e816d	0.9941624
15	0x3f804eb2	1.0024016
16	0x3f823ef4	1.0175462
17	0x3f7c4dd5	0.9855626
18	0x3f7fdc1d	0.9994524
19	0x3f7f98d4	0.9984257
20	0x3f7f744b	0.99786824
21	0x3f80104d	1.0004975
22	0x3f81229e	1.0088689
23	0x3f80b4fe	1.0055234
24	0x3f80618b	1.0029768
25	0x3f7fa1ee	0.9985646
26	0x3f806bc7	1.0032891
27	0x3f7e9947	0.9945263
28	0x3f8039f2	1.0017684
29	0x3f7b3159	0.98122174
30	0x3f7f7fb8	0.9980426
31	0x3f7ee405	0.9956668

bias f4 [32]
0	0x3cfe8051	0.031067045
1	0xbcaa88dd	-0.020817215
2	0x3bcb15ca	0.006197666
3	0x3c8524ae	0.016252842
4	0x3cf64f89	0.030067222
5	0xbb01db89	-0.001981469
6	0x3d366563	0.044530284
7	0x3cb493cd	0.022043133
8	0x3c2e3d4c	0.0106347315
9	0x3a7824a4	0.0009465909
10	0xbcbf6848	-0.023365155
11	0xbd35d41d	-0.04439174
12	0xbb0aaaa6	-0.0021158843
13	0x3c8fd540	0.01755774
14	0x3c64c116	0.013962051
15	0x3d31635a	0.04330764
16	0x3d100980	0.03516531
17	0x3bcbec66	0.0062232492
18	0xbc083ef1	-0.008315788
19	0x3cc5bf2a	0.024139006
20	0x3bf1361b	0.007361186
21	0x3ca33e54	0.019927181
22	0x3c9f659f	0.019457636
23	0x3c2dd624	0.010610137
24	0x3bb60d22	0.005555765
25	0x3c541a1f	0.012945681
26	0x3d11c851	0.035591427
27	0x3c8c2ae1	0.01711029
28	0xbcf70c35	-0.030157188
29	0x3c22d9d4	0.00993963
30	0x3bcd853f	0.0062719877
31	0x3d09d9e2	0.033655055

running_mean f4 [32]
0	0xbdbe8880	-0.09303379
1	0x3db4d949	0.08830506
2	0xbc9072c3	-0.017632848
3	0x3cce844f	0.025209574
4	0xbd208d51	-0.03919727
5	0x3bd58764	0.006516384
6	0xbdba4ff7	-0.09097283
7	0xbcf5b8e5	-0.029995391
8	0x3d0fee44	0.035139337
9	0xbd19ad21	-0.037518624
10	0x3cb00d3f	0.021490691
11	0xbdaa0397	-0.08301466
12	0xbd8b31e7	-0.067966275
13	0xbc2b84bf	-0.010468661
14	0xbdd899c2	-0.10576202
15	0x3d421ead	0.047392536
16	0xbd1ccf71	-0.03828377
17	0xbc3a45ba	-0.011369163
18	0xba74b024	-0.00093341083
19	0xbc4b521e	-0.012409715
20	0xbdc3b7b1	-0.09556521
21	0x3c18c5f1	0.009324537
22	0xbb0cc3cb	-0.0021479006
23	0x3d9f3ad2	0.07774891
24	0xbd9e5d00	-0.07732582
25	0x3db8cfcc	0.09024009
26	0x3c69ae7d	0.014262793
27	0x3d4a695e	0.049416892
28	0x3d995228	0.07486373
29	0x3d431b41	0.047633413
30	0x3dc8cf64	0.098051816
31	0xbd844fa5	-0.064605035

running_var f4 [32]
0	0x375ddf33	1.3224594e-05
1	0x37e2260b	2.6959015e-05
2	0x37a520d3	1.9684818e-05
3	0x37b61f2e	2.171061e-05
4	0x367ca01b	3.764412e-06
5	0x36c4df15	5.8672254e-06
6	0x37764775	1.467938e-05
7	0x37cabad6	2.4167279e-05
8	0x381b0d55	3.6967296e-05
9	0x36aa2bb4	5.0714825e-06
10	0x36cfd5bc	6.1939627e-06
11	0x37aabc3c	2.0353233e-05
12	0x3710e61e	8.636647e-06
13	0x377b2ebd	1.4971648e-05
14	0x37f9d599	2.9782577e-05
15	0x3818e13b	3.6449386e-05
16	0x37e38835	2.7123935e-05
17	0x3729ffa3	1.0132705e-05
18	0x36c37cf8	5.826001e-06
19	0x37c08216	2.294876e-05
20	0x36a09a1c	4.7863123e-06
21	0x374c33e4	1.2171429e-05
22	0x378a3d80	1.647952e-05
23	0x37766310	1.4685807e-05
24	0x3775e10e	1.4655538e-05
25	0x374ecae3	1.2325795e-05
26	0x374dc85c	1.2265602e-05
27	0x374687b0	1.1833312e-05
28	0x368f5d82	4.272618e-06
29	0x377bd903	1.5011293e-05
30	0x370e5364	8.483275e-06
31	0x37855e43	1.589873e-05

weight f4 [32, 32, 3]
0	0xbd80acdf	-0.062829725
1	0xbd9b65fb	-0.075878106
2	0xbdb0f3dc	-0.086402625
3	0x3d490f7a	0.049087025
4	0xbcfabfc2	-0.030609015
5	0x3d9e39b5	0.077258505
6	0xbcffaa22	-0.031209055
7	0xbd5c7d75	-0.053830583
8	0xbd9c2460	-0.076241255
9	0xbdd4c39e	-0.103888735
10	0xbd4d17c2	-0.050071485
11	0xbdac3e1e	-0.084102854
12	0x3d8dd24b	0.06924876
13	0xbcb81e67	-0.022475434
14	0xbceb94b2	-0.028757427
15	0x3d88def1	0.06683148
16	0xbd522b2f	-0.051310714
17	0x3da69754	0.08134332
18	0xbc6a58ef	-0.01430343
19	0x3b94f0d0	0.0045453086
20	0x3c444a0b	0.011980544
21	0xbdd6ba80	-0.10484791
22	0x3c7b3d77	0.015334479
23	0xbdd8cb07	-0.105855994
24	0xbb3bf280	-0.0028678477
25	0xbd252926	-0.040322445
26	0xbde3514a	-0.11099489
27	0xbd9d39d4	-0.076770455
28	0xbd7f4487	-0.062321212
29	0x3c9d20c8	0.01918067
30	0x3d9f9f3f	0.07794046
31	0xbd8e5ac1	-0.06950904
32	0xba7c0fc3	-0.0009615386
33	0x3d869d9f	0.065730326
34	0xbdc4ebf3	-0.09615316
35	0xbdd0df3b	-0.10198828
36	0xbd352bd1	-0.04423124
37	0x3d2c6a92	0.04209382
38	0x3d88e31d	0.066839434
39	0x3cbf7352	0.023370419
40	0x3cdeb416	0.027185481
41	0x3d97fb96	0.07421033
42	0xbda1b1d4	-0.07895246
43	0xbd207882	-0.039177425
44	0x3d5b3297	0.053515043
45	0xbc6ee942	-0.01458198
46	0xbd9d5c55	-0.076836266
47	0x3a33d811	0.00068605045
48	0xbcc151f9	-0.023598658
49	0xbdd5b8d5	-0.104356445
50	0xba7d744b	-0.0009668513
51	0xbd764bbc	-0.06013082
52	0xbd84aa5f	-0.06477808
53	0x3d4de732	0.050269313
54	0x3cd67a97	0.026181502
55	0x3d00def6	0.031462632
56	0x3cc7aea5	0.02437527
57	0x3d85fb6a	0.06542094
58	0x3d8b8eee	0.06814371
59	0xbdb3ad24	-0.08773258
60	0xbd8146cb	-0.06312331
61	0xbdb9a219	-0.09064121
62	0xbd1ac68c	-0.037787005
63	0x3b869857	0.004107516
64	0x3d3b4a84	0.04572536
65	0x3c72d0ec	0.014820319
66	0x3cc6abde	0.024251875
67	0x3cd3b0af	0.025841085
68	0x3d0e41ba	0.03473065
69	0x3bd4ebd3	0.006497839
70	0x3ce4543d	0.0278722
71	0xbd48edf5	-0.04905506
72	0xbcf2910b	-0.029610178
73	0xbc626cf0	-0.013819918
74	0xbccbf5ae	-0.024897423
75	0x3d8fd065	0.0702217
76	0xbd9fc86a	-0.07801898
77	0x3c1c3c89	0.009535917
78	0xbde2b024	-0.110687524
79	0xbdaa0de8	-0.08303434
80	0x3dae1ee8	0.08501989
81	0x3d5fa5b1	0.054601375
82	0xbce0ebd4	-0.027456202
83	0x39c10702	0.0003681705
84	0xbd98c731	-0.07459868
85	0xbd9e9393	-0.07742991
86	0x3ce52845	0.027973304
87	0x3d8954e3	0.06705644
88	0x3dbc7b8f	0.092032544
89	0x3d516aee	0.051127367
90	0x3cf16c06	0.029470455
91	0x3dc70d17	0.097192936
92	0x3d28b54c	0.041188523
93	0xbbb3a7d8	-0.005482655
94	0x3ce00c29	0.027349548
95	0xbdac929c	-0.08426401
96	0x3d1c4113	0.038147997
97	0x3c8e4858	0.01736848
98	0xbde0e672	-0.10981454
99	0x3b49034c	0.003067213
100	0x3c52fa36	0.012877038
101	0x3d46ffd8	0.048583835
102	0x3dc0612d	0.09393535
103	0xbce4cf82	-0.027930979
104	0x3cb8c7d2	0.02255622
105	0x3bee0eb1	0.007264935
106	0x3d8d477c	0.068984
107	0xbd8acd92	-0.06777491
108	0x3cef7fa5	0.02923567
109	0x3d4d3a2c	0.050104305
110	0xbd35ba82	-0.04436732
111	0x3d6c7c30	0.057735622
112	0x3d42972a	0.047507443
113	0x3d42a9f0	0.047525346
114	0x3b511d1a	0.0031908215
115	0xbdd82be3	-0.10555246
116	0x3d8b7754	0.068098694
117	0xbdd169fb	-0.10225292
118	0xbd924931	-0.071428664
119	0x3b405765	0.0029348966
120	0xbd42075b	-0.047370296
121	0x3d022f43	0.031783354
122	0x3d1a049c	0.037602052
123	0x3cea607c	0.02861046
124	0xbda7fdf9	-0.08202738
125	0x3d82c788	0.06385714
126	0x3ccf310e	0.025291946
127	0x3c97046d	0.018434728
128	0x3d4a3214	0.049364164
129	0x3a2502fa	0.0006294694
130	0xbce820e9	-0.028336005
131	0x3d813947	0.06309753
132	0x3d946eb3	0.07247677
133	0xbcc49dbe	-0.024000999
134	0xbb71f000	-0.0036916733
135	0xbc214a2e	-0.009844346
136	0x3c089ed7	0.008338652
137	0x3dc0e587	0.09418779
138	0xbc97c11e	-0.018524703
139	0xbce0f978	-0.027462706
140	0xbd9e3904	-0.077257186
141	0x3d98a09d	0.074525096
142	0x3b45723a	0.0030127899
143	0x3da1b9c1	0.07896758
144	0x3d569f36	0.05239793
145	0xbdbb0568	-0.091318905
146	0x3ddaa609	0.106762
147	0xbd36c0e7	-0.04461756
148	0x3cde93d8	0.027170107
149	0xbc2b79d6	-0.01046606
150	0x3d24f419	0.040271852
151	0x3d4b8610	0.0496884
152	0x3d70122b	0.058611076
153	0x3ce4d1de	0.027932104
154	0xbd499867	-0.049217608
155	0xbd67cb3b	-0.0565903
156	0x3cb5b288	0.022179857
157	0x3b3ed020	0.0029115751
158	0xbd1bd752	-0.038047142
159	0xbd3f03a4	-0.04663433
160	0xbbfa0b1f	-0.0076307203
161	0xbd4cb645	-0.049978513
162	0x3d91c4d6	0.071176216
163	0xbd766a83	-0.06016017
164	0xbd32eb45	-0.0436814
165	0x3cc968f0	0.02458617
166	0xbd8f59de	-0.06999563
167	0x3b511c5b	0.003190777
168	0x3ddab77d	0.10679529
169	0x3d393bf6	0.0452232
170	0xbdbd4827	-0.092422776
171	0xbc11b6df	-0.0088936975
172	0xbd7ee52a	-0.062230267
173	0x3d5ba116	0.05362042
174	0xbbbc7f85	-0.005752506
175	0xbd4f5153	-0.050614666
176	0xbc718457	-0.014741025
177	0xbd25093a	-0.040292002
178	0xbdb35a71	-0.08757485
179	0xbdc220e5	-0.094789304
180	0x3d89b606	0.06724171
181	0x3db676e0	0.08909392
182	0x3c4904af	0.012269183
183	0xbd076447	-0.033054616
184	0xbda7854e	-0.08179723
185	0x3b28b20e	0.0025740894
186	0x3ae7f39b	0.0017696501
187	0xbc308846	-0.010774678
188	0xbcedc438	-0.029024228
189	0x3d441296	0.047869287
190	0xbb5fd0c1	-0.0034151527
191	0xbd63496d	-0.055489946
192	0x3bf2d753	0.0074109226
193	0x3d9ca097	0.076478176
194	0xbd52e9dd	-0.05149256
195	0x3da885f1	0.08228672
196	0x3d4bc04a	0.049743928
197	0x3c4c5d09	0.012473353
198	0xbd428c1d	-0.047496904
199	0xbd19d35f	-0.037555095
200	0x3cbdbef3	0.02316234
201	0x3c0fffb0	0.008788988
202	0x3d261eee	0.04055684
203	0x3cfb9625	0.030711243
204	0xbcd912d1	-0.02649823
205	0x3dcaf361	0.09909702
206	0x3becfbf2	0.0072321827
207	0x3cffa3c3	0.031206017
208	0x3dabecf9	0.08394808
209	0xbd842e5e	-0.06454156
210	0xbd86f466	-0.06589584
211	0x3d873504	0.06601909
212	0xbd996388	-0.07489687
213	0x3d07fd8e	0.033200793
214	0xbda2e6ab	-0.07954153
215	0x3d985a51	0.074391015
216	0xbdd2d83e	-0.10295151
217	0xbc80f35e	-0.015741047
218	0x3b20d817	0.0024542862
219	0x3dc17eb3	0.09447994
220	0x3dbb452c	0.09144053
221	0x3dfd1666	0.12357788
222	0xbd84851b	-0.064707
223	0x3db384d9	0.08765573
224	0x3d0c6be9	0.0342826
225	0xbd76642a	-0.060154118
226	0xbcfaa9ad	-0.030598486
227	0xbc09fa02	-0.008421423
228	0x3dc480df	0.09594893
229	0xbdbb54b7	-0.091470174
230	0x3d519ff4	0.051177934
231	0xbded210a	-0.11578567
232	0xbc375a95	-0.01119103
233	0x3d9ce3d2	0.07660641
234	0x3c4d1daa	0.0125192795
235	0x3ce735ce	0.028223898
236	0x3cbe5cd8	0.02323763
237	0x3ca49a39	0.02009307
238	0x3bb85243	0.0056250407
239	0xbd988b1a	-0.074484065
240	0x3d805199	0.062655635
241	0x3d6c21c2	0.05764938
242	0xbcbfe99f	-0.023426829
243	0x3d69dae5	0.05709352
244	0xbdb54135	-0.08850328
245	0xbdecc525	-0.1156104
246	0x3d999f2c	0.07501063
247	0xbd545265	-0.05183639
248	0x3dd00e0f	0.101589315
249	0x3cae63ae	0.021287765
250	0x3d16733b	0.036730986
251	0xbdc029d9	-0.09382982
252	0xbc429fd8	-0.01187893
253	0xbd919624	-0.07108715
254	0xbcad175c	-0.021129303
255	0xbd86a139	-0.065737195

bias f4 [32]
0	0x3d312158	0.04324469
1	0x3c007290	0.007839814
2	0xbc2ad956	-0.0104277935
3	0xbc8b0bb2	-0.01697335
4	0xbd20a8f3	-0.039223623
5	0xbdb5a6c0	-0.08869696
6	0x3d14efe3	0.036361586
7	0x3d8d5764	0.06901434
8	0xbc708da7	-0.01468221
9	0x3b59476b	0.003315414
10	0xbb8635e9	-0.004095782
11	0xbd91f861	-0.07127453
12	0x3d1bab47	0.03800514
13	0x3c979fc8	0.018508807
14	0xbd6caad2	-0.057780094
15	0x3c97ea5e	0.018544372
16	0xbda799de	-0.08183645
17	0x3d82577c	0.063643426
18	0x3da622b7	0.0811209
19	0x3cfda8fa	0.030964363
20	0x3d3eba41	0.046564344
21	0x3d4dd9fd	0.050256718
22	0xbcdab6cb	-0.02669849
23	0xbcac6ca3	-0.021047896
24	0x3d5c0f30	0.05372542
25	0x3d0f1942	0.034936197
26	0x3d4175a8	0.047231346
27	0x3db92a94	0.09041324
28	0xbd83b338	-0.06430668
29	0x3cc24423	0.02371413
30	0xbcc92534	-0.024553873
31	0x3dcec8fa	0.10096927

weight f4 [32]
0	0x3f80c93c	1.0061412
1	0x3f7ee429	0.99566895
2	0x3f7cf79b	0.98815316
3	0x3f81320f	1.0093402
4	0x3f7fa062	0.998541
5	0x3f800582	1.0001681
6	0x3f80277b	1.0012048
7	0x3f8006c5	1.0002066
8	0x3f7eac9e	0.9948214
9	0x3f801ed4	1.0009408
10	0x3f7e674e	0.9937638
11	0x3f80b30c	1.0054641
12	0x3f809094	1.0044122
13	0x3f819b5d	1.0125538
14	0x3f7bc941	0.98353964
15	0x3f7c1f26	0.9848503
16	0x3f8341a5	1.0254408
17	0x3f7e076c	0.99230075
18	0x3f7dcebe	0.9914359
19	0x3f7e6314	0.9936993
20	0x3f7ec845	0.9952434
21	0x3f819503	1.01236
22	0x3f811981	1.0085908
23	0x3f7e532e	0.9934567
24	0x3f804e65	1.0023924
25	0x3f809271	1.004469
26	0x3f7ae3f2	0.98004067
27	0x3f7a7c98	0.97846365
28	0x3f80064d	1.0001923
29	0x3f7d0187	0.98830456
30	0x3f811990	1.0085926
31	0x3f808be5	1.0042692

bias f4 [32]
0	0x3c00932e	0.00784759
1	0x3bbdcb53	0.0057920604
2	0x3d39c28a	0.045351543
3	0x3c0b0851	0.0084858695
4	0x3bd12cc6	0.0063835112
5	0xba8c7a7f	-0.0010717659
6	0x3a078b73	0.0005170621
7	0x3b23a06b	0.0024967443
8	0xbc6489f3	-0.013948905
9	0x3c0ba33c	0.008522805
10	0xbb99eb7e	-0.0046972623
11	0xbb1f2249	-0.002428191
12	0x3c35b8f2	0.011091458
13	0xbcc2ffbe	-0.023803588
14	0xbbe74258	-0.0070574693
15	0x3c3ab0e1	0.01139471
16	0x3c0b6fc7	0.0085105365
17	0xbcc138fd	-0.023586744
18	0xbc4307fa	-0.011903757
19	0x3c5939b4	0.013258386
20	0xbae45071	-0.0017418993
21	0x3b76dd71	0.003766861
22	0x3c07f73f	0.008298694
23	0x3b782bad	0.003786783
24	0x3bcf472b	0.0063256226
25	0x3ad1da94	0.0016010576
26	0xbba9adb2	-0.005178177
27	0xbae84fb3	-0.0017723948
28	0x3c2175cf	0.009854748
29	0xbca7031f	-0.02038723
30	0x3c52e9cc	0.012873124
31	0x3bfc1193	0.0076925247

running_mean f4 [32]
0	0xbe60851a	-0.21925774
1	0xbcbb3a91	-0.022855075
2	0xbc04f637	-0.008115343
3	0xbe75cc85	-0.240038
4	0xbe3f70e6	-0.18695411
5	0xbea906ed	-0.33013096
6	0x3cda773c	0.026668184
7	0xbd6538a7	-0.05596223
8	0x3d7399f5	0.059472997
9	0xbe20c407	-0.15699778
10	0x3eac7484	0.33682644
11	0xbdb0583d	-0.0861058
12	0xbdd32026	-0.10308866
13	0x3db1705c	0.08664009
14	0xbcc15165	-0.023598382
15	0x3e363b22	0.17795995
16	0xbe14c7ec	-0.14529389
17	0x3e342cec	0.17595261
18	0x3ecc5445	0.39908043
19	0xbd1f9c66	-0.038967513
20	0xbd103ce7	-0.03521433
21	0xbdc6c6b8	-0.09705871
22	0xbd69a28a	-0.057039775
23	0x3e520d7a	0.20512953
24	0xbdf44d49	-0.119288035
25	0xbde7a1df	-0.11310171
26	0x3e9a7ee0	0.30174923
27	0x3eaa34fa	0.33243543
28	0xbdd4fb1e	-0.10399459
29	0x3ec18ba5	0.37801853
30	0x3ad05a44	0.0015896042
31	0x3dc4943c	0.09598586

running_var f4 [32]
0	0x3edd82e4	0.43263924
1	0x3dacb3f5	0.084327616
2	0x3dabea17	0.083942585
3	0x3e9a8e3d	0.30186644
4	0x3e4b952b	0.19881122
5	0x3f0f2dd3	0.559293
6	0x3e9b16e9	0.30290917
7	0x3e7307d5	0.23733456
8	0x3dffe088	0.12493998
9	0x3e474ed3	0.19463663
10	0x3f68f855	0.91003925
11	0x3dc8e5d7	0.098094635
12	0x3e81431b	0.2524651
13	0x3dba982b	0.09111055
14	0x3e2b86e9	0.16750683
15	0x3e9dd917	0.3082969
16	0x3e2283a9	0.15870537
17	0x3e2b35bb	0.16719715
18	0x3f587da7	0.8456673
19	0x3e66d0b4	0.22540551
20	0x3e060911	0.13089396
21	0x3e3eeb0b	0.1864435
22	0x3e2a003b	0.1660165
23	0x3ed6dd6a	0.419658
24	0x3ea5daa6	0.32393378
25	0x3e411c49	0.18858446
26	0x3f2011a2	0.62526906
27	0x3f1f8b0d	0.6232155
28	0x3e0dd3b2	0.13850287
29	0x3f572d27	0.8405327
30	0x3e0db6d0	0.13839269
31	0x3d58b915	0.052910883

weight f4 [64, 32, 3]
0	0x3d84ac8c	0.06478223
1	0x3baa8f9f	0.0052051092
2	0xbdae0504	-0.084970504
3	0xbcb9bab6	-0.022672039
4	0x3d5407c7	0.05176523
5	0xbd1866da	-0.037207462
6	0x3c57b198	0.0131649
7	0xbd15086b	-0.03638498
8	0x3dc1643a	0.09442945
9	0xbc9c5c81	-0.019087078
10	0xbd9fff0f	-0.078123204
11	0xbd33ae31	-0.043867294
12	0x3d72c7ff	0.059272762
13	0x3d65906e	0.056045942
14	0x3dbbab37	0.09163516
15	0xbcf44839	-0.029819595
16	0x3cb95424	0.02262313
17	0xbd90ae66	-0.07064514
18	0x3daf509a	0.085602954
19	0xbbd10c75	-0.006379659
20	0x3b072a64	0.0020624632
21	0x3da6c05e	0.0814216
22	0xbd46a676	-0.048498593
23	0x3d7fdf7d	0.062468994
24	0x3d3e35b0	0.04643792
25	0x3b91e8b0	0.0044527873
26	0xbb6ec88d	-0.0036435456
27	0xbd5ae89d	-0.053444494
28	0xbdcf5511	-0.10123647
29	0xbd5fe113	-0.054658007
30	0x3db3e4db	0.08783885
31	0x3d6888fc	0.056771263
32	0xbd9445e0	-0.0723989
33	0xbdaecf1d	-0.085355975
34	0xbc707f7e	-0.014678834
35	0xbc1df424	-0.009640727
36	0x3c939192	0.01801375
37	0x3d96a06f	0.07354819
38	0x3d5c2dc8	0.053754598
39	0xbcce554d	-0.025187159
40	0xbc32acae	-0.010905428
41	0xbd3547af	-0.044257816
42	0xbcd333bb	-0.025781503
43	0xbc56824d	-0.01309259
44	0xbdc31da7	-0.0952714
45	0xbdd70630	-0.10499227
46	0xbd39d704	-0.04537107
47	0x3c4c8948	0.012483902
48	0xbc338f29	-0.010959425
49	0x3d8c9bf8	0.06865686
50	0xbd114d4d	-0.03547411
51	0x3ca9faa7	0.020749403
52	0xbd4a5dab	-0.049405735
53	0xbdac4606	-0.084117934
54	0xbdceb570	-0.100932
55	0x3c09410b	0.008377324
56	0xbc8d4b3e	-0.017247792
57	0xbc5cbf2b	-0.013473312
58	0xbdd151a7	-0.10220652
59	0xbd294fd6	-0.041335903
60	0xbd745e92	-0.0596605
61	0x3b8d68dc	0.0043154787
62	0xbd925016	-0.071441814
63	0xbd9c0bc3	-0.07619431
64	0xbd92c0b9	-0.07165665
65	0x3d31bb32	0.043391414
66	0x3d8be641	0.06831027
67	0x3d0756a4	0.03304161
68	0xbdc95647	-0.09830909
69	0xbdbef8e9	-0.093248196
70	0xbd1b435c	-0.037906036
71	0x3c9ab42d	0.018884743
72	0x3d1fbc27	0.038997795
73	0xbac94cb0	-0.0015357938
74	0x3dc5e0cb	0.096620165
75	0xbdaf1116	-0.08548181
76	0xbdb34fad	-0.08755431
77	0xbcd52653	-0.026019251
78	0x3dc03cf2	0.093866244
79	0x3d13bf6d	0.03607123
80	0xbd92a92c	-0.07161173
81	0x3cfb46e2	0.030673448
82	0xbc8ac0b3	-0.01693759
83	0x3d9bb5c4	0.076030284
84	0xbd923b98	-0.07140273
85	0x3c1a136b	0.009404044
86	0x3b7cb753	0.0038561418
87	0xbd9817d3	-0.07426419
88	0x3d3a7a4c	0.045526788
89	0xbb0bcd1c	-0.0021331972
90	0xbc49d23b	-0.012318189
91	0xbd8bf8f6	-0.06834595
92	0x3ccd68b8	0.025074348
93	0x3d359000	0.044326782
94	0x3da843b6	0.0821604
95	0x3d852c08	0.06502539
96	0xbd362a37	-0.044473853
97	0xbd99f244	-0.075169116
98	0xbd0f47f1	-0.034980718
99	0xbcb4da12	-0.02207664
100	0x3a47867d	0.0007611288
101	0x3cda2af5	0.026631812
102	0x3d92823c	0.071537465
103	0x3da1dcfe	0.07903479
104	0x3da15344	0.0787721
105	0xbdcc1ae8	-0.099660695
106	0xbda2c76c	-0.07948193
107	0xbcf64750	-0.030063301
108	0x3da26226	0.079288766
109	0xbd87f03f	-0.0663762
110	0xbc484679	-0.012223833
111	0xbcdde352	-0.027085934
112	0x3d78bfd8	0.06072983
113	0xbdd63f19	-0.10461254
114	0xbc53125b	-0.012882794
115	0xbb7dff4b	-0.0038756903
116	0xbdd0fb2e	-0.10204159
117	0x3d8934af	0.06699502
118	0xbcc4ef88	-0.024039999
119	0xbc7beeeb	-0.015376787
120	0x3cc421d0	0.023941904
121	0x3d850f71	0.06497086
122	0xbd0cf9b6	-0.03441783
123	0x3d842180	0.06451702
124	0x3d7fa991	0.06241757
125	0xbd2a8858	-0.041633934
126	0x3d55aada	0.05216489
127	0xbda91b38	-0.08257145
128	0x3d476309	0.04867843
129	0x3cfaa4ad	0.030596102
130	0x3da6f86e	0.08152853
131	0x3cd161d1	0.025559338
132	0x3d780df2	0.060560174
133	0xb8d71886	-0.00010256567
134	0x3dc435d7	0.09580582
135	0xbdbc93b0	-0.09207857
136	0xbdc4078d	-0.09571753
137	0xbd687d0e	-0.056759886
138	0xbcde6ef7	-0.027152522
139	0x3d9dbe7a	0.07702346
140	0xba2e5c61	-0.0006651339
141	0xbd0c0b4e	-0.03419047
142	0x3c60a8d5	0.013712128
143	0x3c53cbf2	0.012927042
144	0xbb9b7dd2	-0.0047452236
145	0x3c85d393	0.016336238
146	0x3d60e6cb	0.0549076
147	0x3d8076a4	0.06272629
148	0xbd1ee0b5	-0.038788516
149	0xbdbacec0	-0.09121466
150	0x3cf98aef	0.030461757
151	0x3d11f124	0.03563036
152	0xbd1222d9	-0.035677765
153	0xbd83d8d5	-0.06437842
154	0xbd79641a	-0.06088648
155	0xbc3eda07	-0.011648661
156	0x3d70f268	0.058824927
157	0xbd91ac0a	-0.07112892
158	0xbc7f4224	-0.015579734
159	0xbd8c93e7	-0.06864148
160	0x3d82d4e3	0.06388261
161	0x3d5581eb	0.052125853
162	0x3d8c31a4	0.06845406
163	0xbcf93622	-0.03042132
164	0xbd94c492	-0.07264055
165	0xbd4357c0	-0.047691107
166	0x3ce2a94a	0.027668614
167	0xbd33421b	-0.043764215
168	0xbd857e78	-0.065182626
169	0xbda249c5	-0.07924227
170	0x3da8deb3	0.082456015
171	0x3cd993e5	0.02655978
172	0xbd9360d0	-0.071962
173	0xbcc66cbd	-0.024221772
174	0xbd16ded0	-0.036833584
175	0x3cc13f2c	0.023589693
176	0x3d63d481	0.05562258
177	0x3be27b42	0.006911666
178	0x3c577dc7	0.013152546
179	0xbd0dd7b8	-0.034629554
180	0x3d197bf3	0.037471723
181	0x3de1443a	0.10999341
182	0xbc25fff9	-0.010131829
183	0xbdc2b01a	-0.09506245
184	0xbd70d805	-0.058799762
185	0xbcd18f1e	-0.025580939
186	0xbd974c31	-0.07387579
187	0xbcdb4a42	-0.026768807
188	0x3e014a71	0.12626053
189	0x3d0cb5b0	0.03435296
190	0x3d95b49d	0.0730984
191	0xbcd19f59	-0.025588678
192	0x3db89e47	0.09014564
193	0x3d1d1ef8	0.038359612
194	0x3c02ea71	0.0079904655
195	0x3d169613	0.036764216
196	0x3d1d3dae	0.0383889
197	0xbcbda740	-0.02315104
198	0x3cdba5d0	0.026812464
199	0xbd6c49f5	-0.05768772
200	0xbd97b0d4	-0.07406774
201	0x3db07d17	0.08617609
202	0x3dc1e9a5	0.09468392
203	0xbd4c72ea	-0.049914278
204	0x3bfeb708	0.007773284
205	0xbcb994ff	-0.022654055
206	0xbc245fb3	-0.010032582
207	0x3db0dec5	0.0863624
208	0x3cf538a2	0.029934231
209	0x3d944c38	0.072411
210	0xbd24793b	-0.040154677
211	0x3d92bee0	0.07165313
212	0xbd7fad42	-0.06242109
213	0xbd80dce5	-0.06292132
214	0x3d245dbc	0.040128455
215	0xbc6c4d0b	-0.014422665
216	0x3c913aa8	0.017728165
217	0xbd077208	-0.033067733
218	0xbcbe65d1	-0.02324191
219	0xbdc42d09	-0.09578902
220	0xbbe736ce	-0.007056094
221	0x3cbdd837	0.023174388
222	0xbbc831c3	-0.0061094477
223	0x3cc09f4e	0.023513462
224	0xbdb0b405	-0.08628086
225	0xbd7832d2	-0.06059534
226	0xbd8784c4	-0.0661712
227	0x3d20ba6e	0.039240293
228	0xbb438f13	-0.0029839918
229	0xbdb5084b	-0.088394724
230	0xbdca706a	-0.098847225
231	0xbd8c606e	-0.0685433
232	0xbdb7cf4e	-0.08975087
233	0x3d80034a	0.06250627
234	0xbd8c54e5	-0.0685213
235	0x3d1b1825	0.037864823
236	0x3ce32d17	0.027731461
237	0xbde4678f	-0.11152565
238	0x3d36bbd2	0.044612713
239	0xbdb675fa	-0.08909221
240	0x3e0bc8d6	0.13650832
241	0xbd67333b	-0.05644534
242	0x3e0009d4	0.12503749
243	0xbd069253	-0.03285439
244	0x3d5a3385	0.05327179
245	0xbdc1e25e	-0.09467004
246	0xbd947d17	-0.072504215
247	0x3d29f3d3	0.041492295
248	0xbdccba9b	-0.0999653
249	0xbd8fdd9d	-0.07024691
250	0xbd929b9b	-0.07158586
251	0x3c8a2737	0.016864402
252	0xbd267877	-0.040642228
253	0x3cbb88b8	0.022892341
254	0xbd7360ad	-0.05941837
255	0x3c918e92	0.017768178

bias f4 [64]
0	0xbc940110	-0.018066913
1	0xbc39c389	-0.011338123
2	0xbbc67c28	-0.006057281
3	0x3c8ba939	0.017048465
4	0x3cbd6312	0.02311853
5	0x3c5c8356	0.013459047
6	0x3da20f06	0.07913022
7	0xbccd82f1	-0.025086852
8	0x3d3d8697	0.046270933
9	0xbd4c143d	-0.04982399
10	0x3d16a880	0.036781788
11	0x3dad8e6f	0.08474433
12	0xbbaa1b7e	-0.0051912656
13	0x3d241bd8	0.040065616
14	0xbd8d6fa6	-0.06906061
15	0x3d9a265a	0.07526846
16	0x3d6bb7ef	0.05754846
17	0x3d025e58	0.031828254
18	0xbd8367b9	-0.06416268
19	0x3d2e4946	0.042550348
20	0x3dcd6133	0.10028305
21	0xbc0f15f8	-0.008733265
22	0xbcc39c3e	-0.023878213
23	0x3d23548d	0.039875556
24	0xbc7c2019	-0.015388512
25	0x3d559e91	0.052153174
26	0xbd80b818	-0.06285113
27	0xbd9efa2d	-0.07762561
28	0x3d4a1b8c	0.049342677
29	0xbdc33550	-0.09531653
30	0x3d8096d3	0.062787674
31	0x3db6dc8b	0.08928784
32	0x3d84e1a5	0.06488351
33	0x3d912fd6	0.07089202
34	0x3d63f6c5	0.05565526
35	0x3b44e111	0.0030041377
36	0xbd806746	-0.06269698
37	0x3d4c4b41	0.049876455
38	0x3d376023	0.044769417
39	0x3d1364be	0.035984747
40	0x3d6d0f19	0.057875726
41	0xbbac84a3	-0.005264835
42	0x3ca5400a	0.020172138
43	0x3db079d1	0.08616985
44	0xbd0f24e5	-0.034947295
45	0xbda15bcb	-0.07878836
46	0xbd5bf58f	-0.05370098
47	0x3dc6d8b9	0.09709305
48	0xbd8e287b	-0.06941315
49	0x3d21640b	0.03940205
50	0x3c1c86c1	0.009553612
51	0x3db28d0e	0.0871831
52	0x3cb55d5e	0.022139248
53	0x3d5febb3	0.05466814
54	0x3d0112a6	0.031511925
55	0xbcf31fd0	-0.029678255
56	0xbd5f2179	-0.05447528
57	0xbd42d7b5	-0.047568996
58	0x3d794747	0.06085899
59	0xbd4ff6f2	-0.050772615
60	0xbda65616	-0.08121888
61	0x3dcdc429	0.1004718
62	0xbdb395f0	-0.08768833
63	0x3dc5e54b	0.09662875

weight f4 [64]
0	0x3f7f95f1	0.9983817
1	0x3f81247c	1.0089259
2	0x3f80ae5b	1.0053209
3	0x3f7dd07b	0.9914624
4	0x3f7c6cb0	0.98603344
5	0x3f803d8b	1.0018781
6	0x3f7ffbdd	0.9999369
7	0x3f7ae00d	0.97998124
8	0x3f7c7edf	0.9863109
9	0x3f80a48f	1.0050219
10	0x3f82e9f3	1.0227646
11	0x3f7bcf20	0.9836292
12	0x3f7b92b6	0.9827074
13	0x3f80907c	1.0044093
14	0x3f7f840c	0.9981086
15	0x3f7fa34a	0.99858534
16	0x3f801ec8	1.0009394
17	0x3f7e2782	0.99279034
18	0x3f7f7b46	0.99797475
19	0x3f7c2041	0.98486716
20	0x3f800733	1.0002197
21	0x3f80245e	1.0011098
22	0x3f804e2d	1.0023857
23	0x3f7c4657	0.9854483
24	0x3f7f6b9d	0.9977358
25	0x3f7c91dc	0.98660064
26	0x3f8009f1	1.0003034
27	0x3f7f16f6	0.9964441
28	0x3f7fde8c	0.99948955
29	0x3f7f7a22	0.99795735
30	0x3f8003a8	1.0001116
31	0x3f802d9b	1.0013918
32	0x3f7f6609	0.9976507
33	0x3f7cd0d2	0.98756135
34	0x3f8002ce	1.0000856
35	0x3f7f123a	0.99637187
36	0x3f7bbc15	0.98333865
37	0x3f81af11	1.0131551
38	0x3f7dc4aa	0.9912821
39	0x3f7f5dca	0.99752486
40	0x3f806ed3	1.0033821
41	0x3f7f935e	0.9983424
42	0x3f7f8cff	0.9982452
43	0x3f7f443b	0.99713486
44	0x3f804c2c	1.0023246
45	0x3f80610b	1.0029615
46	0x3f7f81fc	0.99807715
47	0x3f80effd	1.0073239
48	0x3f8187e7	1.0119599
49	0x3f8436c9	1.0329219
50	0x3f7f0ff4	0.9963372
51	0x3f8219a7	1.0164078
52	0x3f7fba0a	0.9989325
53	0x3f804044	1.0019612
54	0x3f80413d	1.0019909
55	0x3f7b72f5	0.98222286
56	0x3f800e11	1.0004293
57	0x3f7f3c59	0.9970146
58	0x3f7e3811	0.993043
59	0x3f81cff4	1.0141587
60	0x3f7f1fca	0.9965788
61	0x3f7ff923	0.9998953
62	0x3f7ff3ee	0.9998158
63	0x3f804619	1.0021392

bias f4 [64]
0	0xba924fd9	-0.0011162712
1	0x3c151be8	0.009100892
2	0x3997b783	0.0002893769
3	0xbbcf32ed	-0.0063232095
4	0xbb426387	-0.0029661374
5	0x3aa6742f	0.001269942
6	0x3b27add2	0.0025585783
7	0x39cf2016	0.00039506023
8	0xbb2ad35a	-0.0026065917
9	0x3c11b76c	0.008893829
10	0x3cbbd89b	0.022930434
11	0x3bdd2e0d	0.0067498744
12	0x3ae43a71	0.0017412436
13	0x39c7eae0	0.00038131233
14	0x3b5d3998	0.0033756252
15	0x3b0c5aab	0.0021416347
16	0x3c10750e	0.0088169705
17	0x3aedf6c1	0.0018155203
18	0x3b613bbd	0.0034367882
19	0x3b4bd8fc	0.0031104675
20	0x3ba509c7	0.005036566
21	0x3a1cdad0	0.00059835333
22	0x3ace08a7	0.0015719131
23	0xbb05e428	-0.0020430181
24	0x3c0e9530	0.008702561
25	0xb8fb32a7	-0.000119780474
26	0xbc76ecef	-0.015071138
27	0x3bd24ee1	0.0064180945
28	0xbaf415d0	-0.0018622223
29	0xba718eeb	-0.0009214717
30	0x391c85fd	0.00014927234
31	0x3b91fa12	0.0044548595
32	0xbaba336a	-0.0014205996
33	0xbb91ff12	-0.0044554556
34	0x3b318e8a	0.0027093017
35	0x3c281696	0.010259291
36	0xb983b37d	-0.00025119996
37	0x3bdc86fb	0.006729958
38	0x3b55765f	0.0032571775
39	0x3a922975	0.0011151271
40	0x3c10a0de	0.008827416
41	0xbaee6389	-0.0018187623
42	0x3a938f7b	0.001125797
43	0xbb2f3bd7	-0.0026738548
44	0x3bbe07e7	0.005799282
45	0x3b18c242	0.0023309146
46	0xb9d0e35a	-0.00039842242
47	0x3bd4cb2c	0.0064939465
48	0x3d24fa73	0.04027791
49	0x3a306ff0	0.0006730547
50	0xbb66566e	-0.003514673
51	0xba3facad	-0.00073118025
52	0x3a60e754	0.00085793925
53	0x3bbe6650	0.0058105364
54	0x3c8c04b3	0.017092085
55	0x3b8e254d	0.0043379427
56	0x3bc28e9e	0.0059374114
57	0xbb9a6eaf	-0.0047129015
58	0xbb09f5ea	-0.0021051117
59	0x3be4a308	0.0069774427
60	0xbb922802	-0.0044603357
61	0x3bbf36cf	0.005835391
62	0x3a1318c3	0.0005611295
63	0x3b6e3024	0.0036344612

running_mean f4 [64]
0	0xbe9185bb	-0.2842234
1	0xbdce6d5f	-0.10079455
2	0xbc2c88a6	-0.010530626
3	0x3e1a404b	0.15063588
4	0x3ef3337d	0.4750022
5	0x3df2ac98	0.11849326
6	0xbe4763c2	-0.19471648
7	0x3e106f79	0.14105023
8	0x3ed07af1	0.40718797
9	0x3b186b6d	0.002325739
10	0xbe9d9b10	-0.30782366
11	0x3ee2ea9d	0.4431962
12	0x3ec91fd5	0.39282098
13	0x3e0c2e97	0.13689648
14	0xbec44116	-0.38330907
15	0xbe952b00	-0.2913437
16	0xbdcae980	-0.09907818
17	0x3e39e462	0.18153527
18	0xbef4bce3	-0.4780036
19	0x3ef5190b	0.4787067
20	0xbda660f4	-0.08123961
21	0xbd0382b0	-0.032107055
22	0xbe06c6d7	-0.13161789
23	0x3e75db5b	0.24009459
24	0x3d34c4f2	0.044133134
25	0x3ed5eebf	0.4178371
26	0x3da825a7	0.082103066
27	0xbe6789d5	-0.22611172
28	0xbe537df8	-0.20653522
29	0xbed033b5	-0.4066445
30	0xbe25e757	-0.1620153
31	0xbd4954e4	-0.049153224
32	0xbea6c4fd	-0.32572165
33	0x3e3378bf	0.1752653
34	0xbe15347f	-0.14570807
35	0xbb409acd	-0.0029389143
36	0x3e096c97	0.1342033
37	0x3d728290	0.059206545
38	0x3e7b08f8	0.2451514
39	0xbe177fc0	-0.14794827
40	0x3d61f3f8	0.055164307
41	0xbe429b13	-0.19004469
42	0xbe8a7438	-0.27041793
43	0xbe9d34a8	-0.30704236
44	0xbe7b2445	-0.24525554
45	0xbe3e2f58	-0.18572748
46	0xbc8855a0	-0.016642392
47	0x3d66b196	0.056321703
48	0xbe290c5b	-0.1650862
49	0x3a9074c7	0.001102113
50	0xbee22831	-0.4417129
51	0x3e99b59e	0.30021375
52	0xbe601c1c	-0.21885723
53	0xbec3195c	-0.38105285
54	0x3c441262	0.011967273
55	0x3e243a2c	0.16037816
56	0xbe350e3f	-0.17681216
57	0xbe220970	-0.15823913
58	0x3e42f565	0.19038923
59	0xbbb515e6	-0.005526292
60	0xbf0456b1	-0.5169478
61	0xbe828ddf	-0.25498864
62	0xbdd0d976	-0.101977274
63	0xbcf19860	-0.029491603

running_var f4 [64]
0	0x3e9ac24d	0.30226365
1	0x3e032b2a	0.12809435
2	0x3e97456b	0.2954515
3	0x3e985da7	0.2975895
4	0x3f0367cc	0.51330256
5	0x3ebe8da3	0.37217435
6	0x3ecc3c44	0.3988973
7	0x3f056d1c	0.5211961
8	0x3fce3015	1.6108423
9	0x3dd44b38	0.10365909
10	0x3e6eed6c	0.23332757
11	0x3f57629a	0.8413483
12	0x3f284463	0.6572935
13	0x3e64c37b	0.22340195
14	0x3ebbde86	0.3669321
15	0x3f7badc9	0.9831205
16	0x3df5a767	0.1199482
17	0x3e01e59b	0.12685244
18	0x3eaab73c	0.33342922
19	0x3f70796d	0.9393528
20	0x3f08fd72	0.53511727
21	0x3e0af0e0	0.13568449
22	0x3e82fe85	0.25584808
23	0x3f49c424	0.7881491
24	0x3e5d5534	0.21614534
25	0x3ee28054	0.44238532
26	0x3e76a5a7	0.24086629
27	0x3e80a11b	0.25122914
28	0x3f23cf2a	0.6398798
29	0x3ebdd0dd	0.37073413
30	0x3f8bbf36	1.0917728
31	0x3e94639e	0.28982252
32	0x3f75e84a	0.9605757
33	0x3ed3a4fd	0.41336814
34	0x3ec2c800	0.38043213
35	0x3e0a9d01	0.13536455
36	0x3f539062	0.82642186
37	0x3e39a87c	0.18130678
38	0x3e82e6aa	0.25566608
39	0x3f4cba88	0.79972124
40	0x3e33f43c	0.17573637
41	0x3e8ddd54	0.27707922
42	0x3e9d630c	0.3073963
43	0x3f78211a	0.9692551
44	0x3ec74ba4	0.38924897
45	0x3e44ce91	0.19219424
46	0x3e24dc54	0.16099674
47	0x3e0039c6	0.12522039
48	0x3e09daab	0.13462321
49	0x3e646915	0.2230571
50	0x3f59420e	0.84866416
51	0x3df3285a	0.11872931
52	0x3ee49057	0.44641373
53	0x3eecc954	0.4624735
54	0x3e1f0250	0.15528226
55	0x3f42c2a9	0.7607828
56	0x3e178a30	0.14798808
57	0x3e3e3fbf	0.18579005
58	0x3e468217	0.19385563
59	0x3e175cde	0.1478152
60	0x3eabb13b	0.33533654
61	0x3f8e9278	1.1138449
62	0x3e62797e	0.22116658
63	0x3ee76ff9	0.45202616

weight f4 [64, 64, 3]
0	0xbd534952	-0.051583596
1	0x3d50045a	0.0507854
2	0x3d37b28d	0.044848014
3	0x3d3acd36	0.04560586
4	0x3d21fa44	0.039545313
5	0xbcf9b3fd	-0.030481333
6	0x3cb2f63e	0.021845933
7	0xbd81fb5b	-0.063467704
8	0xbd438dce	-0.047742657
9	0xbd66253c	-0.056187853
10	0xbba460ad	-0.0050164075
11	0x3c704971	0.014665947
12	0xbbda1ff3	-0.0066566407
13	0x3d38141d	0.044941057
14	0x3ccedd73	0.02525208
15	0xbc9db71a	-0.019252349
16	0x3d86ae68	0.06576234
17	0x3cce00f1	0.025146933
18	0x3d753577	0.05986544
19	0x3d05e546	0.032689355
20	0x3aac9f61	0.0013170057
21	0xbd473b16	-0.048640333
22	0xbd6bc1e8	-0.05755797
23	0xbc864b28	-0.01639326
24	0x3d8146f2	0.0631236
25	0x3b5e2927	0.003389904
26	0x3cd98b24	0.026555605
27	0x3d566e37	0.052351203
28	0x3c18606a	0.009300331
29	0xbd52e392	-0.05148656
30	0xbd1d874b	-0.038459104
31	0xbd1b29a1	-0.037881497
32	0xbd232f07	-0.03983977
33	0x3d95699a	0.072955325
34	0x3d5dafb2	0.054122634
35	0xbcc472bd	-0.023980493
36	0xbc74f7f2	-0.014951693
37	0x3d8b0d9c	0.06789705
38	0xbd0a1275	-0.03370901
39	0x3d62b0fa	0.05534456
40	0xbd290ad6	-0.0412701
41	0xbc961c2b	-0.018323978
42	0xbd4a3591	-0.04936749
43	0xbd3d1688	-0.046164066
44	0x3d809c75	0.06279842
45	0xbc03ef02	-0.008052589
46	0xbd437957	-0.04772314
47	0xbd215eb2	-0.03939695
48	0xbcb51208	-0.022103325
49	0x3d8321bc	0.06402919
50	0x3b087538	0.002082182
51	0xbd331ed3	-0.04373057
52	0xbcfcf8ce	-0.030880358
53	0xbb6b88d4	-0.003593971
54	0x3cae1c65	0.021253774
55	0x3d816e7b	0.063199006
56	0x3d8453f3	0.064613245
57	0x3d266a48	0.0406287
58	0x3a397ede	0.00070760946
59	0xbcb7f1d0	-0.022454172
60	0x3d052148	0.032502443
61	0xbcc42062	-0.023941223
62	0xbbf39f19	-0.0074347374
63	0xbd236f13	-0.03990085
64	0x3d034dd3	0.03205664
65	0x3c86f6c6	0.016475093
66	0xbcfe71cb	-0.03106012
67	0xbc7ee820	-0.015558273
68	0x3ceed6c0	0.029155135
69	0x3cbf0115	0.023315946
70	0x3d2b5371	0.041827623
71	0x3d47d224	0.04878439
72	0xbd0ee002	-0.0348816
73	0xbd95fe50	-0.07323897
74	0x3cda0138	0.02661191
75	0x3c096478	0.00838577
76	0xbc835079	-0.016029583
77	0xbc956d5b	-0.018240621
78	0x3b3fa61c	0.0029243296
79	0x3d2412c0	0.040056944
80	0xbb85070b	-0.0040596775
81	0xbd8b5830	-0.0680393
82	0x3d58c403	0.052921306
83	0xbd2b4e0f	-0.04182249
84	0xbd35fbb6	-0.044429503
85	0x39b4d13d	0.0003448817
86	0x3d12994a	0.03579072
87	0xbd123eb5	-0.035704333
88	0xbd0861ae	-0.03329628
89	0x3c074c78	0.008257978
90	0xbd0c4274	-0.034243062
91	0x3d4727e3	0.048622023
92	0x3cec5962	0.028851215
93	0x3d1e1c6b	0.03860132
94	0x3cd3461d	0.025790269
95	0xbce40b34	-0.027837373
96	0x3b12760a	0.0022348189
97	0x3d6ef398	0.058337778
98	0x3c864258	0.016389057
99	0xbcf7547c	-0.030191652
100	0x3d06b9d8	0.03289208
101	0x3c705868	0.014669515
102	0xbd1f92a8	-0.03895822
103	0x3c950180	0.018189192
104	0x3d5f779c	0.054557428
105	0xbd4f4268	-0.05060044
106	0xbd14cf43	-0.036330473
107	0xbc886ddb	-0.016653946
108	0xbca2bb9d	-0.019864852
109	0xbb0704e1	-0.0020602273
110	0xbd24b933	-0.040215682
111	0xbcd47a10	-0.02593711
112	0xbbd57424	-0.006514089
113	0xbcc96d96	-0.024588387
114	0x3cdeddf3	0.027205443
115	0xbcd9f8f7	-0.026607974
116	0xbd05fef7	-0.032713857
117	0xbc0d678b	-0.008630644
118	0x3cc31cfb	0.02381753
119	0x3cca5881	0.024700405
120	0x3d7c939b	0.061664205
121	0xb9ae74f9	-0.00033275018
122	0xbd0bf71d	-0.034171212
123	0x3cd54613	0.02603439
124	0x3d739454	0.05946763
125	0xbc65586c	-0.013998132
126	0x3c645548	0.013936348
127	0xbd4f4a8d	-0.050608207
128	0xbd3f447c	-0.04669617
129	0xbd94b8f7	-0.07261842
130	0x3d0b5408	0.034015685
131	0xbcd03126	-0.02541406
132	0xbcf85527	-0.030314041
133	0xbd6d5367	-0.057940867
134	0xbd7b1aa4	-0.061304703
135	0x3be49b66	0.0069765327
136	0xbd91bce2	-0.07116105
137	0x3cb38f46	0.021918904
138	0xbce000a9	-0.027344065
139	0xbd068657	-0.03284296
140	0x3d8930ba	0.06698747
141	0xbc7719e9	-0.015081861
142	0x3db5685c	0.088577956
143	0x3d7de6d4	0.061987713
144	0xbd2099f7	-0.039209332
145	0x3ad91a78	0.0016563674
146	0x3ca334ad	0.019922579
147	0x3d81f229	0.063450165
148	0x3c588c00	0.013216972
149	0x3ce260ba	0.027634013
150	0xbd938567	-0.07203179
151	0x3d61491c	0.055001363
152	0x3d48de04	0.049039856
153	0xbd9cdf35	-0.07659761
154	0xbcb4624d	-0.02201953
155	0x3d66bacc	0.056330487
156	0x3d8b3995	0.06798092
157	0xbc55fc39	-0.013060623
158	0x3b79fb3f	0.003814414
159	0x3d8c1983	0.068408035
160	0xbd856d2b	-0.06514963
161	0x3d52e5ec	0.0514888
162	0x3c9e8e56	0.01935498
163	0x3c5cccef	0.013476594
164	0xbc1b59e9	-0.0094818855
165	0xbd12dad8	-0.035853237
166	0xbd6941a9	-0.056947384
167	0x3ce2095d	0.027592355
168	0x3d1828e0	0.037148356
169	0x3d57c1ad	0.052674938
170	0x3c3211e5	0.010868524
171	0x3c344a68	0.011004068
172	0x3d223fd0	0.039611638
173	0xbd247f04	-0.040160194
174	0xbd40f777	-0.047111
175	0x3d2ef7e4	0.042716876
176	0x3d0a4c4b	0.033764165
177	0xbce2b2f0	-0.027673215
178	0x3d0c416c	0.03424208
179	0x3db6d5af	0.08927476
180	0x3d5f1696	0.0544649
181	0x3cddee5d	0.0270912
182	0xbd40f599	-0.04710922
183	0x3b43a000	0.0029850006
184	0x3cb4951d	0.022043759
185	0x3ccf4b29	0.025304394
186	0x3d594587	0.053044822
187	0x3d97db20	0.07414842
188	0xbd60686e	-0.054787092
189	0x3c41f50f	0.011838212
190	0x3c7fd10d	0.015613806
191	0xbd42fcdc	-0.047604427
192	0x3cd77c8f	0.026304511
193	0x3cf32110	0.029678851
194	0x3d1fc1cd	0.039003182
195	0x3d516f21	0.05113137
196	0xbd3bdaf4	-0.045863107
197	0xbcf932f2	-0.0304198
198	0xbdbf9fef	-0.09356677
199	0xbc15cf91	-0.009143726
200	0xbcd8b9ea	-0.026455838
201	0x3c69c4ab	0.014268081
202	0x3d51d5b9	0.051229212
203	0xbd3bb616	-0.045827948
204	0xbd8b0b81	-0.067893036
205	0x3d6e6d7e	0.05820989
206	0xbbf9b292	-0.007620164
207	0x3d3a4a9d	0.045481313
208	0x3d6a5af1	0.057215635
209	0x3d8e0d79	0.069361635
210	0x3d294c0d	0.041332293
211	0x3d0d7a4e	0.034540467
212	0xba1b0ff2	-0.0005915157
213	0x3d543d28	0.051816136
214	0xbd5966b3	-0.053076457
215	0x3cfc7a73	0.030820107
216	0x3d25907f	0.040421005
217	0x3d06ae5d	0.03288113
218	0x3d0e35da	0.034719326
219	0x3dbe8091	0.09301866
220	0x3d2782eb	0.040896337
221	0x3d4ff5c0	0.050771475
222	0x3baecdb5	0.005334581
223	0x3ce4c07a	0.027923811
224	0xbd2fa002	-0.042877205
225	0xbcd61321	-0.026132168
226	0x3d9a7f2c	0.07543787
227	0xbd556006	-0.05209353
228	0x3d68cc21	0.056835297
229	0xbd3b0678	-0.045660466
230	0x3d7bb186	0.061448596
231	0xbda1b311	-0.07895482
232	0xbdca5e60	-0.09881282
233	0xbd24b5d6	-0.040212475
234	0x3ba4a32e	0.0050243353
235	0x3d0afbaa	0.03393141
236	0xbd2c3d6f	-0.042050775
237	0xbc94f353	-0.018182432
238	0xbad9e30b	-0.001662345
239	0x3d37950b	0.044819873
240	0x3cf84b1b	0.03030925
241	0x3b8114a1	0.0039392267
242	0xbc290b16	-0.0103175845
243	0xbd8b244b	-0.06794032
244	0xbd04fb09	-0.03246597
245	0x3d8945f5	0.06702796
246	0x3d903d8b	0.070429884
247	0xbc1727d1	-0.009225802
248	0x3d8bd261	0.06827236
249	0x3d39ea5f	0.04538953
250	0x3d676bac	0.05649917
251	0xbd4b39a5	-0.04961552
252	0x3d2043a4	0.039127007
253	0x3d509c9a	0.050930597
254	0x3d6ac0b0	0.057312667
255	0x3d1778a3	0.036980283

bias f4 [64]
0	0x3d2311fc	0.039812073
1	0xbd527bf4	-0.051387742
2	0x3bfb968e	0.0076778596
3	0xbd03f873	-0.03221936
4	0x3c8fd517	0.017557664
5	0xbd5ed28b	-0.05440001
6	0xbd07107f	-0.032974716
7	0xbd8a6da3	-0.06759193
8	0x3d4f3556	0.050587974
9	0xbd8d78e3	-0.06907823
10	0x3d63bad8	0.05559811
11	0xbd86361f	-0.065532915
12	0x3d2c8d7c	0.042127118
13	0xbd3a4b1f	-0.045481797
14	0xbd02e903	-0.0319605
15	0x3c4b8e23	0.012424025
16	0xbc7b827d	-0.015350935
17	0xbc1ebe59	-0.009688937
18	0xbb92cacf	-0.004479743
19	0xbcd1abb6	-0.025594573
20	0x3d7c66cc	0.061621472
21	0xbaeddcc3	-0.0018147457
22	0x3cdfb205	0.027306566
23	0x3d7b1740	0.06130147
24	0xbd499586	-0.049214862
25	0x3d5e54b3	0.054279994
26	0x3caea448	0.02131857
27	0x3d453504	0.048146263
28	0x3d1473a5	0.0362431
29	0xbc646a8f	-0.013941421
30	0xbcb6bfe5	-0.0223083
31	0x3d8db0fb	0.06918522
32	0xbc105c8a	-0.0088111255
33	0xbd17b2d1	-0.037035767
34	0x3d11ead5	0.035624344
35	0x3d8b9aa7	0.06816607
36	0xbccb125a	-0.024789024
37	0x3c05380b	0.0081310375
38	0xbcfbeb55	-0.030751863
39	0x3c3ccaa4	0.011522923
40	0x3d7bfcbd	0.061520327
41	0xbcf2bb85	-0.029630432
42	0xbd15d6d5	-0.036581833
43	0xbd60c35b	-0.054873805
44	0x3d8a7d2a	0.067621544
45	0x3d3e9ff8	0.046539277
46	0xbceecdc7	-0.029150857
47	0x3c323107	0.010875947
48	0x3d6bccb5	0.05756827
49	0xbd5bb18f	-0.05363613
50	0xbcb62410	-0.022233993
51	0x3ce61795	0.028087417
52	0xbd2ae33c	-0.041720614
53	0xbcf30040	-0.029663205
54	0x3b667f86	0.0035171225
55	0xbcdd7301	-0.027032377
56	0xbc9d3553	-0.019190466
57	0xbd6c16ce	-0.057638936
58	0x3d15bc37	0.03655645
59	0xbce8fb7f	-0.028440235
60	0x3cb94e54	0.022620358
61	0x3d854d2a	0.065088585
62	0xbb21067b	-0.0024570513
63	0x3d2ceffc	0.042221054

weight f4 [64]
0	0x3f8479d0	1.0349674
1	0x3f8a3945	1.0798727
2	0x3f88b7b8	1.0681067
3	0x3f881f0d	1.0634476
4	0x3f831753	1.0241493
5	0x3f855b2c	1.0418448
6	0x3f81b0b9	1.0132056
7	0x3f8e885b	1.1135362
8	0x3f8ad246	1.084542
9	0x3f845754	1.033915
10	0x3f87414c	1.0566802
11	0x3f8adc9e	1.0848577
12	0x3f8d7a86	1.1053016
13	0x3f895361	1.072857
14	0x3f876919	1.0578948
15	0x3f872b08	1.0560007
16	0x3f892d06	1.0716865
17	0x3f8462ff	1.0342711
18	0x3f8749e3	1.0569423
19	0x3f8a29dc	1.0794024
20	0x3f895c4b	1.073129
21	0x3f88c365	1.068463
22	0x3f861327	1.0474595
23	0x3f85aef0	1.0444012
24	0x3f826c72	1.0189345
25	0x3f8a73d5	1.0816599
26	0x3f858155	1.0430094
27	0x3f81e81c	1.0148959
28	0x3f81a626	1.012883
29	0x3f87ff65	1.0624815
30	0x3f8a9302	1.0826113
31	0x3f8326d6	1.0246227
32	0x3f8e4474	1.111464
33	0x3f89f4cc	1.0777831
34	0x3f85fdb1	1.0468045
35	0x3f82f6a2	1.0231516
36	0x3f81880e	1.0119646
37	0x3f8644b5	1.0489718
38	0x3f8b1798	1.0866575
39	0x3f8cb534	1.0992799
40	0x3f889506	1.0670478
41	0x3f87bbaa	1.0604146
42	0x3f83c53a	1.0294564
43	0x3f851c50	1.0399265
44	0x3f816629	1.0109302
45	0x3f8aa53e	1.0831678
46	0x3f87780b	1.0583509
47	0x3f832403	1.0245365
48	0x3f8041fc	1.0020137
49	0x3f850939	1.039344
50	0x3f8457a2	1.0339243
51	0x3f8492fa	1.0357354
52	0x3f818227	1.0117844
53	0x3f8a3f5f	1.0800589
54	0x3f827530	1.0192013
55	0x3f8c372f	1.0954341
56	0x3f835cad	1.0262657
57	0x3f88a2e1	1.0674707
58	0x3f88cb0f	1.0686969
59	0x3f8f7661	1.1208001
60	0x3f81b422	1.0133097
61	0x3f81f2bd	1.0152203
62	0x3f8445a3	1.0333751
63	0x3f85c1da	1.0449784

bias f4 [64]
0	0x3beaee65	0.007169532
1	0x3c439ce9	0.011939266
2	0x3b28604c	0.0025692163
3	0x3c5d60e3	0.013511869
4	0x3d8935e7	0.06699734
5	0x3de5c335	0.112188734
6	0x3b4157b3	0.0029501736
7	0x3c21b9fe	0.009871004
8	0x3b8eba21	0.0043556844
9	0x3af5ae28	0.0018743919
10	0x3c209626	0.009801423
11	0x3cadfae8	0.021237805
12	0x3cb19a30	0.021679968
13	0x3c64d47b	0.013966675
14	0xbbdde45d	-0.006771608
15	0x3c660ff4	0.014041889
16	0x3c800dc8	0.015631571
17	0x3db5d378	0.08878225
18	0x3cbceea9	0.02306302
19	0x3d0a9c38	0.033840388
20	0x3c7fdfc5	0.015617316
21	0x3c900933	0.017582512
22	0x3d4e3896	0.050346933
23	0x3b8d3bdd	0.004310115
24	0x3cb2bbd3	0.021818077
25	0x3b52bc90	0.003215585
26	0x3e022236	0.12708363
27	0x3d3b2100	0.045685768
28	0x3b58bfb7	0.0033073255
29	0x3be874ac	0.0070939865
30	0x3cffcd68	0.031225875
31	0x3d941807	0.07231145
32	0xba8db176	-0.0010810334
33	0x3b9cebf2	0.004788869
34	0x3dd43047	0.10360771
35	0x3d6ff74d	0.058585454
36	0x3b397b36	0.00283022
37	0x3c285c3a	0.010275895
38	0x3c70b257	0.014690957
39	0x3d04c72e	0.032416515
40	0xbb186f46	-0.0023259684
41	0x3c89b51c	0.016809992
42	0x3dc24dd2	0.09487499
43	0x3dd3d940	0.103441715
44	0x3d1d5cea	0.038418688
45	0x3c5e1657	0.013555131
46	0x3e02ea7b	0.1278476
47	0x3d4cb286	0.04997494
48	0xbc6d6c24	-0.014491115
49	0x3dcff62c	0.101543754
50	0xbaf0391d	-0.0018327568
51	0x3dbbe7e3	0.09175088
52	0x3d026659	0.031835888
53	0x3c5bcdd9	0.013415777
54	0x3b7e7bec	0.0038831187
55	0x3ce10694	0.027468957
56	0x3aa92232	0.0012903868
57	0x3c10144e	0.0087939035
58	0x3b6c8153	0.0036087825
59	0x3c99eb92	0.018789086
60	0x3d332488	0.04373601
61	0x3ab86355	0.0014067689
62	0x3daa0b2a	0.083029106
63	0x3bb8f49d	0.0056443946
